Pipeline/Models/ACTINN/Baseline.pth (torch, 829132 bytes, 8 tensors)

fc1.weight f4 [100, 2000]
0	0x3d2d191b	0.04226027
1	0xbc892dae	-0.016745415
2	0xba620303	-0.00086216646
3	0x3cd30ef3	0.025763964
4	0xbc1edaf7	-0.00969576
5	0x3d05c140	0.032655
6	0x3c4d40fc	0.0125277005
7	0x3c8a0ceb	0.016851863
8	0xbd47983b	-0.048729163
9	0xbd1a4057	-0.037659016
10	0xbcb9f41b	-0.022699406
11	0xbcbc98ae	-0.023022022
12	0x3d50479c	0.050849542
13	0xbd1badbe	-0.03800749
14	0x3d0bad26	0.034100674
15	0x3be6f19b	0.0070478446
16	0xbcc7a20b	-0.02436926
17	0x3cb65276	0.022256117
18	0x391931d7	0.00014609784
19	0x3ccf6107	0.02531482
20	0x3d137dae	0.03600853
21	0xbc21912b	-0.009861271
22	0x3c88f5e0	0.016718805
23	0x3d052b1c	0.032511815
24	0xbc39b256	-0.0113340225
25	0x3bba370b	0.005682831
26	0xbd454ac3	-0.048167
27	0x3c4bd660	0.012441248
28	0x3c9ce27e	0.019150969
29	0xba2f9f17	-0.00066994264
30	0x3d10b55c	0.035329208
31	0xbcadfeee	-0.021239724
32	0x3d470be3	0.04859532
33	0x3d4b63c3	0.049655687
34	0xbcabc92c	-0.02096995
35	0xbc88c3b2	-0.016694877
36	0x3d4d06f3	0.050055455
37	0x3d3a46a0	0.04547751
38	0x3d0660d0	0.03280717
39	0x3d449f90	0.048003733
40	0xbd6e4ab0	-0.058176696
41	0x3d005038	0.031326503
42	0x3d39fd37	0.0454075
43	0xbc6ad494	-0.014332909
44	0xbc2e9822	-0.0106563885
45	0x3cfdb65b	0.030970743
46	0x3d422c26	0.047405384
47	0xbd5add80	-0.053433895
48	0x3d46f57b	0.048573952
49	0xbcddbe27	-0.02706821
50	0xbca6ad78	-0.020346388
51	0x3cb489b0	0.02203831
52	0xbcdca873	-0.026935792
53	0xbd503826	-0.050834797
54	0xbcf8cf23	-0.030372208
55	0x3caf7fc7	0.021423234
56	0x3d30e8cf	0.043190774
57	0xb97230a8	-0.00023097044
58	0x3d4194f3	0.04726119
59	0x3d54a098	0.051910967
60	0xbbb95b7f	-0.005656659
61	0x3d438054	0.047729805
62	0xbd062d7b	-0.032758217
63	0xbcc5cfa0	-0.024146855
64	0xbbea8963	-0.007157491
65	0xbd853563	-0.06504323
66	0x3c6c85c8	0.014436193
67	0xbd128200	-0.03576851
68	0xbccaa4db	-0.024736812
69	0xbd8cb8c8	-0.06871182
70	0x3b2cc27b	0.0026361037
71	0x3d50f563	0.05101527
72	0xbcb7d5f8	-0.022440895
73	0x3d2d95af	0.042379078
74	0xbd1644e0	-0.036686778
75	0xbd208f5d	-0.039199222
76	0xbca33a53	-0.019925272
77	0x3ac0fbcb	0.0014723478
78	0xbd190398	-0.037356943
79	0x3cce6493	0.025194442
80	0x3ce8e57b	0.028429737
81	0xbc866d34	-0.016409494
82	0xbd4b7543	-0.049672376
83	0xbd31b21e	-0.043382756
84	0x3cac878f	0.021060733
85	0xbb0305c2	-0.0019992446
86	0xbd10e66c	-0.035375997
87	0xbd3b8bee	-0.045787744
88	0xbcdeb8be	-0.027187701
89	0xbd1395d6	-0.036031567
90	0xbd041636	-0.032247745
91	0x3ba054a4	0.0048929024
92	0xbc909b6e	-0.01765224
93	0x3bb3fac7	0.0054925415
94	0x3cd307f0	0.02576062
95	0xbcece3bc	-0.028917186
96	0x3c3ac5ff	0.011399745
97	0xbc855ea4	-0.01628048
98	0xbd21aeab	-0.039473217
99	0x3c15e8ce	0.009149743
100	0xb91f2f70	-0.00015181093
101	0xbd019077	-0.031631913
102	0xbce04628	-0.027377203
103	0x3be4404f	0.006965674
104	0xbd1bcee4	-0.038039103
105	0x3bc0333e	0.0058654835
106	0xbca68030	-0.020324796
107	0x3cfc22f7	0.030778391
108	0xbd2e7eab	-0.04260127
109	0xbc01c9f8	-0.007921688
110	0xbc22672b	-0.0099122925
111	0x3c2e94fb	0.010655637
112	0x3cb9f4a4	0.022699662
113	0x3d2d57d7	0.0423201
114	0xbd3394f0	-0.04384321
115	0xbd1f3856	-0.038872086
116	0x3cb77ac8	0.022397414
117	0x3cfcc7a7	0.03085692
118	0xbd4642fc	-0.048403725
119	0xbcf66b86	-0.030080568
120	0xbc1a0d64	-0.009402607
121	0x3d618bf7	0.05506512
122	0xbd4ca236	-0.049959384
123	0x3c08dc54	0.008353312
124	0xbc65d756	-0.014028391
125	0x3d192a0e	0.037393622
126	0xbbec27fc	-0.007206915
127	0xbd560de6	-0.05225935
128	0x3d3d91be	0.04628157
129	0x3cc96163	0.02458257
130	0xbc0e8350	-0.0086982995
131	0x3c1298e6	0.008947587
132	0x3cab1083	0.020881897
133	0xbd188f0f	-0.037245806
134	0x3d4dfb0f	0.050288256
135	0x3c930d2b	0.017950615
136	0x3cf7294b	0.030171057
137	0x3d24b9ec	0.04021637
138	0x3d03e694	0.03220232
139	0xbcb3f270	-0.02196619
140	0x3b15d9ae	0.0022865343
141	0x3d39e936	0.045388423
142	0xbce02218	-0.027360007
143	0xbd01481b	-0.031562906
144	0x3d38e723	0.045142304
145	0xbc86ca4b	-0.016453883
146	0xbc6bf5e4	-0.014401887
147	0xbc9b0758	-0.0189244
148	0x3d12b4a8	0.03581682
149	0x3ba5b87b	0.005057392
150	0x3ab98ee2	0.0014156962
151	0xbd29d2a3	-0.041460644
152	0x3d3fb546	0.046803735
153	0x3c23b0cb	0.009990881
154	0x3ca1e133	0.019760704
155	0x3cc84e4b	0.024451395
156	0xba7e165f	-0.00096926646
157	0x3d04200c	0.032257125
158	0x3d5dfcc3	0.05419613
159	0x39954b06	0.0002847539
160	0x3ba8673c	0.0051392596
161	0xbd4b962e	-0.04970377
162	0x3c2adc24	0.010428462
163	0x3c0d8a20	0.008638889
164	0xbb292efb	-0.0025815356
165	0x3d11a9a2	0.035562165
166	0xbd563582	-0.052297123
167	0x3cdbf247	0.026848925
168	0x3d0df0af	0.034653362
169	0xbcbf7434	-0.02337084
170	0xbd4c06be	-0.049811117
171	0xbd8230b7	-0.06356948
172	0xbcbbfc90	-0.02294758
173	0x3ab934cb	0.0014130113
174	0x3baf6a57	0.005353253
175	0x3cf39143	0.029732352
176	0x3d41ed33	0.04734535
177	0xbb3e1ade	-0.0029007713
178	0x3cd10806	0.025516521
179	0xbc96e5c0	-0.0184201
180	0xbcc5d03b	-0.024147144
181	0xbd2bb223	-0.04191793
182	0x3cd033b8	0.025415286
183	0xbcdc422c	-0.026887022
184	0xbcca308e	-0.024681356
185	0xbac54d32	-0.0015052913
186	0xbcd53703	-0.026027208
187	0x3d1afc37	0.037838187
188	0x3cdaa243	0.0266887
189	0xbd47158e	-0.04860454
190	0x3d14b23e	0.036302797
191	0x3cfa8e83	0.030585533
192	0x3c07441a	0.008255983
193	0x3c8f4e78	0.017493472
194	0x3cc9910f	0.024605302
195	0x3cc0642e	0.02348527
196	0x3c8148d6	0.015781801
197	0x3d3d4916	0.04621228
198	0x3cf501d6	0.029908102
199	0x3cbc274c	0.022967957
200	0xbc452c6e	-0.012034519
201	0x3d23ab66	0.03995838
202	0x3d456608	0.048193008
203	0x3c7808fe	0.015138863
204	0x3d156683	0.036474716
205	0x3d31841b	0.043338876
206	0x3c9f8c23	0.019476002
207	0xbd36063b	-0.044439536
208	0x3c5b1286	0.013371116
209	0xbcc94314	-0.024568118
210	0x3c345064	0.011005495
211	0x3ae97e4e	0.0017814131
212	0x3d2a2d60	0.04154718
213	0xbca38a20	-0.019963324
214	0xbd2e7e58	-0.04260096
215	0x3c5987a3	0.013276967
216	0x3b80105e	0.003908201
217	0xbcc11463	-0.023569291
218	0xbc1a657a	-0.009423608
219	0x3cfc6336	0.030809026
220	0x3c3a516e	0.011371953
221	0xbd526bcf	-0.051372346
222	0xbc89f6e6	-0.016841363
223	0x3d245f87	0.040130164
224	0xbd391ba6	-0.045192383
225	0xbc689946	-0.0141966995
226	0xbbb03af8	-0.0053781234
227	0xbd52dc2c	-0.051479504
228	0x3d2377aa	0.039909042
229	0xbbcb9a14	-0.006213436
230	0xbcde84d8	-0.027162954
231	0xbd35d97c	-0.044396862
232	0xbb1ebc0a	-0.0024220967
233	0xba4e07a3	-0.00078594143
234	0xbd06d340	-0.032916307
235	0xbc22217e	-0.0098956805
236	0x3b0faa94	0.002192174
237	0xbca86800	-0.020557404
238	0xbc902f62	-0.017600719
239	0x3bf141f4	0.0073625986
240	0x3ceebd04	0.029142864
241	0x3d3faf87	0.046798255
242	0xbcac4406	-0.02102853
243	0x3bc7b13f	0.0060941274
244	0xbd440803	-0.047859203
245	0x3d1216c6	0.03566625
246	0x3cf1f244	0.029534467
247	0x3d2ce926	0.042214535
248	0xbc40e8e3	-0.0117742745
249	0x3c0b68d4	0.00850888
250	0x3b0c05aa	0.002136568
251	0x3cca1ffb	0.024673453
252	0x3adf2d43	0.0017027039
253	0xbd20183e	-0.03908562
254	0xbd51e6a7	-0.051245358
255	0xbcf2580e	-0.029583003

fc1.bias f4 [100]
0	0x39ae97f6	0.00033301086
1	0x3a531090	0.0008051479
2	0x3a8b80d0	0.0010643248
3	0x00000000	0.0
4	0xbc7c3cf3	-0.015395391
5	0xbbd93387	-0.006628457
6	0xbb349df3	-0.0027559965
7	0x3a5eb09e	0.0008494946
8	0xbc2d67ce	-0.010583831
9	0xbbfbb043	-0.007680924
10	0xbc99afc0	-0.018760562
11	0xbb08210f	-0.0020771658
12	0x3bd2a30b	0.0064281276
13	0xbc47ac37	-0.012187055
14	0xbb7c116b	-0.003846253
15	0xbbb45e7b	-0.005504427
16	0xbb8979b8	-0.004195418
17	0xbc23dd4e	-0.010001494
18	0xbb87115c	-0.0041219424
19	0xbc5ee808	-0.013605125
20	0xbb15ed45	-0.002287702
21	0xbbde4980	-0.006783664
22	0xba35a64e	-0.00069293834
23	0x3b690b6e	0.003555979
24	0x3bab6c27	0.0052313986
25	0xbbfa0586	-0.007630053
26	0xbb50eefb	-0.0031880725
27	0xbc78f9df	-0.015196293
28	0x00000000	0.0
29	0xbba90652	-0.005158224
30	0xba55a3f2	-0.0008149735
31	0xba81997c	-0.0009887661
32	0xbc5361f3	-0.012901771
33	0xbbd457fb	-0.0064802147
34	0xbc0609d2	-0.008181052
35	0xbb8fc17c	-0.004387079
36	0xbc1794ed	-0.009251815
37	0xbb0017f2	-0.0019545523
38	0xb98b79e3	-0.0002660296
39	0xbb7347eb	-0.0037121724
40	0xbc142ce0	-0.009043902
41	0xbb905678	-0.004404839
42	0xbbc06788	-0.005871717
43	0xbb530e27	-0.003220448
44	0xbc6ac6de	-0.01432964
45	0xbad9a840	-0.0016605929
46	0xbb4b723b	-0.0031043428
47	0x3af00a0f	0.0018313545
48	0xbb50151b	-0.003175086
49	0xbc224811	-0.009904877
50	0xbc03d771	-0.008046971
51	0xbc3eb1a3	-0.011639032
52	0xbc1be467	-0.009514905
53	0xbb694b0b	-0.0035597708
54	0x3b66a586	0.0035193875
55	0xbc1a8e72	-0.009433376
56	0x3bb500b0	0.0055237636
57	0xba8646bb	-0.0010244468
58	0xbc259bd2	-0.010107951
59	0xbada800c	-0.0016670241
60	0xbb70bf0b	-0.0036734964
61	0xbc92d160	-0.017922103
62	0x00000000	0.0
63	0xbc340723	-0.01098803
64	0xbbecc08c	-0.007225102
65	0xbc062be8	-0.008189179
66	0xb9d81e46	-0.00041221286
67	0xbbb8bf8e	-0.0056380695
68	0xbc561c5b	-0.013068284
69	0xbbcd5e9b	-0.0062673814
70	0x3a84e840	0.0010140017
71	0xbb76c3c3	-0.0037653304
72	0xbc36e573	-0.011163103
73	0xbb1d18d5	-0.00239711
74	0xbb14a2d3	-0.0022680059
75	0xbaa926b3	-0.001290521
76	0xbb972d20	-0.0046135336
77	0xbbab7833	-0.0052328347
78	0xbb1206e4	-0.002228194
79	0x00000000	0.0
80	0xbc34751c	-0.011014249
81	0xbb60b10e	-0.003428522
82	0xbbfaf526	-0.0076586185
83	0xbc3e21f8	-0.0116047785
84	0xbbb58910	-0.0055400208
85	0xbc68bcf0	-0.014205202
86	0xbb47962f	-0.0030454507
87	0xbb49fb33	-0.0030819892
88	0xbc826130	-0.015915483
89	0xbc49493c	-0.012285527
90	0xbc58e4fe	-0.01323819
91	0xb96de0e2	-0.00022685857
92	0xba506558	-0.00079496717
93	0xbc09856f	-0.008393629
94	0x00000000	0.0
95	0xbc791da0	-0.015204817
96	0xbbcaceeb	-0.0061892173
97	0xbbeba190	-0.0071908906
98	0x3ba333e6	0.004980552
99	0xbc20607e	-0.0097886305

fc2.weight f4 [50, 100]
0	0xbdb4138c	-0.08792791
1	0x3c55feeb	0.013061265
2	0x3da2becb	0.07946547
3	0xbe290ba6	-0.1650835
4	0x3ccf3e2e	0.025298204
5	0xbd9ea357	-0.07745998
6	0x3e16a586	0.1471158
7	0xbd0b5b7f	-0.034022804
8	0xbd0e4384	-0.034732357
9	0xbc2ad04b	-0.0104256375
10	0xbe3c8d83	-0.18413357
11	0x3d8f3637	0.069927625
12	0xbdd1287e	-0.102128014
13	0x3e399064	0.18121487
14	0xbc8e1f36	-0.017348867
15	0x3bfb99ee	0.007678262
16	0x3dfb2884	0.12263587
17	0x3bdf0494	0.0068059657
18	0x3e33f0fb	0.17572396
19	0x3d8ff263	0.070286535
20	0xbe41abd3	-0.18913202
21	0x3d52d703	0.051474582
22	0xbca53fd8	-0.020172045
23	0xbdc6bf6b	-0.09704479
24	0xbe4c3918	-0.19943655
25	0xbe447a5b	-0.191873
26	0xbe4b58e0	-0.19858122
27	0xbe03ae0b	-0.12859361
28	0x3e0cc82e	0.13748237
29	0xbc6c5fc3	-0.014427128
30	0x3bb9f402	0.00567484
31	0x3dde41eb	0.108524166
32	0xbbf3f0c6	-0.007444474
33	0xbe1540ee	-0.1457555
34	0xbe200bc9	-0.15629496
35	0x3e00ef16	0.12591204
36	0xba09085f	-0.00052273826
37	0x3d800228	0.06250411
38	0x3e2726e4	0.1632343
39	0xbe28dbbe	-0.16490075
40	0x3dfa37dc	0.122176856
41	0x3d842764	0.06452826
42	0x3df91f58	0.121641815
43	0x3e25c0cb	0.16186826
44	0xbdb6fc0f	-0.08934795
45	0xbcd845c3	-0.026400452
46	0xbd61d1a8	-0.055131584
47	0xbe417774	-0.18893224
48	0xbe4ad6b3	-0.19808464
49	0xbda91826	-0.08256559
50	0x3e208d4a	0.15678898
51	0x3db209b8	0.0869326
52	0x3cae7d18	0.021299884
53	0x3dbcb893	0.09214892
54	0x3e247af4	0.16062528
55	0x3e019c06	0.12657174
56	0x3e111f72	0.14172152
57	0x3e2df1c7	0.16986762
58	0x3e2c7ace	0.16843721
59	0xbe377998	-0.17917478
60	0xbe07df7e	-0.13268849
61	0xbe3e7abf	-0.18601511
62	0xbcbec690	-0.023288041
63	0xbe40fa86	-0.18845567
64	0x3dbd497b	0.09242531
65	0xbbcec80e	-0.0063104695
66	0xbc75083c	-0.0149555765
67	0x3d060f92	0.032729693
68	0x3e08187e	0.13290593
69	0xbe133ac0	-0.1437788
70	0x3db97694	0.0905582
71	0x3e26f9d3	0.16306238
72	0x3e16b3e8	0.14717066
73	0xbe3ee4de	-0.18641993
74	0xbdbd81d6	-0.0925328
75	0x3d9a9eca	0.07549818
76	0x3c96e03e	0.018417474
77	0xbde73170	-0.11288726
78	0xbd43a1bf	-0.047761675
79	0x3dd81aeb	0.10552009
80	0xbe03926a	-0.12848821
81	0x3e3c7480	0.18403816
82	0x3e0ed2eb	0.13947646
83	0x3b54863e	0.0032428647
84	0xbe378c40	-0.17924595
85	0x3c54aecf	0.012981131
86	0x3e255472	0.16145495
87	0xbd1a4506	-0.037663482
88	0x3de35e0f	0.11101925
89	0xbdcb7d6f	-0.09936034
90	0x3df86cd3	0.121301316
91	0x3dbab706	0.0911694
92	0xbcaa7b5a	-0.020810772
93	0x3e0935f0	0.13399482
94	0xbd3dbae8	-0.046320826
95	0xbe3b26d0	-0.18276525
96	0xbce9e010	-0.028549224
97	0x3e07514c	0.13214606
98	0xbdea4bf7	-0.114402704
99	0x3e4479de	0.19187114
100	0x3ddf7c23	0.10912349
101	0x3e2b104e	0.16705438
102	0xbdc79a88	-0.09746271
103	0xbc9e3570	-0.01931259
104	0x3ddeaa28	0.108722985
105	0x3dda6e17	0.10665529
106	0xbdb896c7	-0.090131335
107	0xbe420c48	-0.18949997
108	0xbe1f21f8	-0.15540302
109	0xbd946962	-0.07246663
110	0x3e3a03db	0.18165533
111	0x3decea13	0.115680836
112	0x3e2413f2	0.16023234
113	0xbe179474	-0.14802724
114	0x3dbf64c6	0.09345393
115	0x3dee3684	0.11631492
116	0xbe3bd277	-0.18342005
117	0x3e34d7be	0.17660424
118	0xbddee3d2	-0.10883297
119	0x3ddde21b	0.10834142
120	0xbd329734	-0.04360123
121	0x3e0954b0	0.13411212
122	0x3e172876	0.14761528
123	0x3e4d786a	0.20065466
124	0x3c18d826	0.009328878
125	0x3b4694b0	0.0030301027
126	0xbb65286c	-0.003496672
127	0x3e3425df	0.17592572
128	0x3d8c681e	0.06855796
129	0x3d0e5472	0.034748502
130	0xbd5cddf0	-0.053922594
131	0x3debcdcf	0.11513864
132	0x3b6a58b7	0.0035758445
133	0x3dff34a3	0.124612115
134	0x3dfc9ff2	0.12335195
135	0x3e2efb1e	0.17087981
136	0x3dd33034	0.103119284
137	0x3e2213e3	0.15827899
138	0x3e141c33	0.14463882
139	0xbe18a082	-0.14904979
140	0xbdfaaf20	-0.12240434
141	0xbd11b5c4	-0.035573736
142	0xbe00558c	-0.12532634
143	0xbd9ff546	-0.07810454
144	0xbe3a81b6	-0.18213543
145	0x3df2fc06	0.11864476
146	0xbdd1c9c6	-0.10243563
147	0xbde782a3	-0.11304214
148	0xbe0d5f37	-0.13805853
149	0xbd83cbdf	-0.0643537
150	0xbd8982d2	-0.06714405
151	0xbdede3f6	-0.11615746
152	0xbdd27622	-0.10276438
153	0xbc905c46	-0.017622124
154	0xbccb5cd3	-0.024824535
155	0xbe47bc36	-0.1950539
156	0x3d13d23b	0.036089163
157	0xbe49c65a	-0.19704571
158	0xbe27b0aa	-0.16375986
159	0xbdf56663	-0.11982419
160	0x3e33b396	0.17548975
161	0xbdb7bfaf	-0.089721076
162	0xbe4c078b	-0.19924752
163	0xbdd2fb5f	-0.103018515
164	0x3dbd16cf	0.09232866
165	0xbe47c1be	-0.195075
166	0xbe0dba5a	-0.13840619
167	0xbe11581f	-0.14193772
168	0x3b86b0c2	0.0041104266
169	0xbe269cef	-0.16270803
170	0x3e2dfbc6	0.16990575
171	0x3d355d4b	0.044278424
172	0xbd9636a7	-0.07334643
173	0x3de35f30	0.1110214
174	0xbd7f5943	-0.062340986
175	0xbd15ea8c	-0.036600634
176	0x3da462b5	0.08026639
177	0xbe3d5773	-0.1849039
178	0x3d30aecc	0.04313545
179	0x3e18730a	0.14887634
180	0xbe054c8c	-0.13017482
181	0xbe258de4	-0.16167408
182	0xbd3bb7bb	-0.045829516
183	0x3c735906	0.014852768
184	0xbd6c38c2	-0.057671316
185	0x3e34bec4	0.17650896
186	0xbe04593c	-0.12924665
187	0x3dc7852c	0.097421974
188	0x3d940b8e	0.072287664
189	0xbd0bb916	-0.03411206
190	0x3d48c486	0.049015544
191	0x3dce17d3	0.10063138
192	0x3cd8e994	0.026478566
193	0xbdd15428	-0.1022113
194	0xbd350c40	-0.044201136
195	0xbe000fb0	-0.12505984
196	0xbe01ecda	-0.12688008
197	0xbe2d0ef6	-0.16900238
198	0x3cda8ea0	0.026679337
199	0x3e09efc8	0.13470376
200	0x3b526cbc	0.0032108268
201	0xbdf36120	-0.118837595
202	0x3df7661e	0.12080024
203	0xbd2b3268	-0.041796118
204	0xbd8d8d17	-0.069116764
205	0x3d5ed6eb	0.05440418
206	0xbe318346	-0.17335233
207	0xbd2dbb24	-0.0424148
208	0x3d18e037	0.037323203
209	0xbd8fb29a	-0.070164874
210	0x3d1bd74e	0.038047127
211	0x3dad992a	0.08476479
212	0x3e11437f	0.14185904
213	0xbdfb6902	-0.12275888
214	0xbdec6a86	-0.11543755
215	0x3e1b53d6	0.151687
216	0x3e373d1e	0.17894408
217	0x3df2b666	0.11851196
218	0xbe14cc91	-0.14531161
219	0x3df2005b	0.11816474
220	0x3c7f0056	0.015564045
221	0x3e4430ab	0.1915919
222	0x3db5bcd3	0.08873906
223	0x3de5a557	0.11213177
224	0xbc1c7a8d	-0.009550703
225	0x3cd9db0f	0.026593713
226	0x3d6d32a6	0.05790963
227	0x3e3ca60e	0.1842272
228	0x3df707de	0.120620474
229	0xbe309ece	-0.17248079
230	0xbdea05ee	-0.11426912
231	0xbddeeafb	-0.10884663
232	0x3e3446aa	0.17605081
233	0x3e3e15cf	0.18563007
234	0xbe0ccc39	-0.1374978
235	0x3e2e1cbf	0.17003153
236	0xbdd23108	-0.10263258
237	0x3c995a14	0.01871971
238	0xbe38f128	-0.18060744
239	0x3dc75bd0	0.09734309
240	0x3d32fabe	0.043696158
241	0x3df7d8ce	0.12101899
242	0x3d0affbc	0.033935294
243	0xbd6c2763	-0.05765475
244	0x3e3b4727	0.18288861
245	0xbe371d7e	-0.17882344
246	0xbda7501c	-0.081695765
247	0xbdcfdbf6	-0.10149376
248	0x3e201e5b	0.1563658
249	0xbe3ef41b	-0.18647806
250	0x3e377a8f	0.17917846
251	0xbe539007	-0.20660411
252	0xbe18ac3c	-0.14909452
253	0x3e251a33	0.16123275
254	0xbd976b62	-0.073935285
255	0xbc816b04	-0.0157981

fc2.bias f4 [50]
0	0xbca9ec70	-0.020742625
1	0xbc120487	-0.008912212
2	0xbc289c1b	-0.010291125
3	0xbcf12ebb	-0.029441228
4	0xbc8689be	-0.016423102
5	0x3c49f0e6	0.012325501
6	0xbc938227	-0.018006397
7	0xbc6cba46	-0.014448708
8	0x3ca11126	0.019661497
9	0xbc762dc6	-0.015025562
10	0xbc8bccf2	-0.017065499
11	0xbc997eb0	-0.018737167
12	0xbb6cd08a	-0.003613504
13	0xbca0e09f	-0.019638358
14	0xbc39974b	-0.011327575
15	0xbc930fa2	-0.01795179
16	0xbcc1f09b	-0.0236743
17	0xbc9d4c5c	-0.01920145
18	0xbbdf306f	-0.0068111937
19	0xbafc0e82	-0.0019230398
20	0x3c29a30c	0.010353815
21	0xbbaa193a	-0.0051909955
22	0xbcf81012	-0.0302811
23	0xbcc787b2	-0.024356697
24	0xbc6a6d88	-0.014308341
25	0xbcf690ae	-0.030098286
26	0xbc9cb5d3	-0.01912967
27	0xbbbbf950	-0.0057365075
28	0xbc6b1944	-0.0143492855
29	0x3c2f0bb0	0.010683939
30	0xbcbead00	-0.023275852
31	0xbca6a7ff	-0.020343779
32	0xbc866b63	-0.016408628
33	0xbc84e0db	-0.0162205
34	0xbbcea324	-0.006306069
35	0xbb96a05c	-0.004596753
36	0xbcc421aa	-0.023941834
37	0xbc3b7f44	-0.011443917
38	0xbb86fc24	-0.004119413
39	0x3c4f5928	0.012655534
40	0xbc40ce9e	-0.011768011
41	0xbcae032b	-0.021241745
42	0x3c551d83	0.013007524
43	0x3a628c60	0.00086421333
44	0xbc634c5c	-0.013873186
45	0xbc95fa46	-0.018307816
46	0xbc1c4904	-0.009538893
47	0x3a866507	0.0010253497
48	0xbccd7e6c	-0.025084697
49	0xbce02ac6	-0.027364146

fc3.weight f4 [25, 50]
0	0x3e263312	0.1623042
1	0xbe0bc873	-0.13650684
2	0xbdfe8090	-0.12426865
3	0xbdd50e28	-0.10403091
4	0xbe5789ba	-0.21048632
5	0xbc2c646c	-0.010521989
6	0x3dfc2ac0	0.123128414
7	0x3e606de0	0.21916914
8	0x3e478060	0.19482565
9	0x3dc03eec	0.093870014
10	0x3e6bfc84	0.23045546
11	0xbe770a9f	-0.24125145
12	0xbe8f2c2d	-0.2796339
13	0x3e35ba1e	0.1774678
14	0x3e8a5253	0.27015933
15	0xbe327d02	-0.17430499
16	0x3b1a91bc	0.00235854
17	0x3e32bf9f	0.1745591
18	0xbe880e20	-0.26573277
19	0x3d83cf12	0.0643598
20	0xbe80efeb	-0.25183043
21	0xbe0719a6	-0.13193378
22	0x3e225809	0.15853895
23	0xbd8c9583	-0.068644546
24	0xbd596f23	-0.053084504
25	0x3e2ecdc0	0.17070675
26	0xbe7b831c	-0.24561733
27	0xbe36e737	-0.17861639
28	0xbe2f4ab3	-0.17118339
29	0x3c3de78b	0.011590849
30	0xbd210a4e	-0.039316468
31	0x3e040b00	0.12894821
32	0xbc2ca7de	-0.0105380695
33	0xbda0dd5e	-0.078547224
34	0x3e8eb3d8	0.27871585
35	0xbe0d6da0	-0.1381135
36	0x3bf8a8c8	0.0075884797
37	0xbe7d68e3	-0.24747042
38	0xbcc77dfa	-0.024352062
39	0xbd748d32	-0.059704967
40	0x3c13482a	0.008989373
41	0xbe28a822	-0.16470388
42	0x3da9748b	0.08274182
43	0xbe3ddab6	-0.18540463
44	0xbddf9a48	-0.10918099
45	0x3dc6079f	0.09669422
46	0xbd3b6796	-0.045753084
47	0xbe3d05f0	-0.18459296
48	0x3d2b364c	0.04179983
49	0x3b13070f	0.0022434627
50	0x3dda741b	0.106666766
51	0xbe0afb97	-0.13572536
52	0x3e1b855a	0.15187588
53	0xbe106718	-0.14101827
54	0x3e831266	0.25599974
55	0xbd89c9fe	-0.0672798
56	0x3d8ec2dd	0.06970761
57	0x3e5a028b	0.21290033
58	0xbe5f7383	-0.21821408
59	0xbde0a8fb	-0.109697305
60	0xbe886ece	-0.26647037
61	0xbe7f3180	-0.24921227
62	0x3e7e1cb0	0.24815631
63	0x3e842523	0.25809583
64	0xbdc4886c	-0.09596333
65	0x3e29ea16	0.16593203
66	0x3e77457e	0.24147603
67	0x3e04b2fe	0.12958905
68	0x3da39757	0.0798785
69	0x3e482590	0.19545579
70	0x3e0973e8	0.13423121
71	0xbe7b5f2f	-0.24548028
72	0x3e6c2066	0.23059234
73	0x3db9e05b	0.090759955
74	0x3e6929d3	0.22769861
75	0x3df4b858	0.11949223
76	0x3e48ebd3	0.1962121
77	0xbcad9000	-0.021186829
78	0x3dd2dd9a	0.102961734
79	0x3e32688e	0.17422697
80	0x3dc75d2a	0.097345665
81	0xbd9ffd8e	-0.078120336
82	0xbdf13e7e	-0.117794976
83	0x3e0be186	0.13660249
84	0xbe16ea64	-0.1473785
85	0x3e88aeed	0.26695958
86	0x3d823e16	0.06359498
87	0x3c9d95b3	0.019236421
88	0xbe82a33c	-0.25515163
89	0xbe1bc344	-0.15211207
90	0x3d9e336d	0.077246524
91	0x3e806edc	0.2508458
92	0xbc5b970c	-0.013402712
93	0xbdd332f8	-0.10312456
94	0xbe3d3e16	-0.18480715
95	0x3d4f8e6b	0.05067293
96	0x3e33f0aa	0.17572275
97	0xbe0fe8a2	-0.14053586
98	0x3da3beed	0.079954006
99	0x3e810c4b	0.2520469
100	0x3d80b4a0	0.062844515
101	0xbe66489e	-0.22488639
102	0xbbe85002	-0.007089616
103	0xbda38e12	-0.07986082
104	0x3e820717	0.25396034
105	0xbe3e8a53	-0.18607454
106	0xbdf696a6	-0.12040453
107	0xbe35e29c	-0.17762226
108	0xbe96d14c	-0.29456556
109	0xbdeb8a4e	-0.11500989
110	0xbddb4f96	-0.10708539
111	0xbe597e90	-0.21239686
112	0x3e005869	0.12533726
113	0xbd2770b8	-0.04087898
114	0xbe49f650	-0.19722867
115	0xbb783578	-0.0037873667
116	0x3e12a196	0.14319453
117	0x3e5c395f	0.2150626
118	0x3d4317ab	0.047629993
119	0xbe2c3742	-0.16817954
120	0x3d5123cc	0.05105953
121	0x3e835f50	0.25658655
122	0xbd207c20	-0.039180875
123	0xbd82f9fa	-0.063953355
124	0xbe48565e	-0.19564196
125	0x3e3f7248	0.18695939
126	0xbd878138	-0.066164434
127	0x3d3ccad7	0.04609188
128	0xbe818566	-0.25297087
129	0xbdfb494f	-0.12269842
130	0xbe0ff3ec	-0.14057893
131	0xbe08320d	-0.13300343
132	0xbd76d8ab	-0.060265224
133	0xbdd4fb12	-0.1039945
134	0x3e3a793b	0.18210308
135	0xbe1863f0	-0.14881873
136	0x3e854038	0.26025558
137	0x3e582b88	0.21110356
138	0xbc1b8b15	-0.009493609
139	0xbe39367e	-0.18087193
140	0xbe5fc0ef	-0.21850942
141	0xbe53572b	-0.2063872
142	0xbe486be8	-0.19572413
143	0xbe33df33	-0.17565612
144	0x3e6b7e30	0.22997355
145	0xbe05a25a	-0.13050213
146	0x3e5926af	0.21206163
147	0xbe86237b	-0.26198944
148	0x3e7ab330	0.24482417
149	0x3deb012f	0.11474835
150	0x3dd54c80	0.10414982
151	0x3d9ac297	0.07556646
152	0x3e746666	0.23867187
153	0xbe4e6b88	-0.20158207
154	0xbdff9a88	-0.12480646
155	0xbcd130fe	-0.025536057
156	0x3e777124	0.24164253
157	0xbe5531fb	-0.20819847
158	0xbe56c9ab	-0.20975368
159	0xbdc28a48	-0.09499031
160	0x3e65a320	0.22425508
161	0x3df47138	0.11935657
162	0x3e724fcb	0.23663251
163	0x3e4865da	0.19570103
164	0x3dc4685e	0.09590219
165	0xbd5f2dcb	-0.05448703
166	0xbe0b1f0e	-0.13586065
167	0x3e1a8a48	0.15091813
168	0xbe8af2c6	-0.27138346
169	0xbe23527b	-0.15949433
170	0xbdad46bf	-0.08460759
171	0x3df94d36	0.1217293
172	0x3c79acdb	0.015238966
173	0xbe6566ee	-0.22402546
174	0xbe80f207	-0.25184652
175	0xbd577148	-0.052598268
176	0x3e774c00	0.24150085
177	0x3e44a6c4	0.19204241
178	0x3df4de7f	0.119565
179	0xbe53c81b	-0.20681803
180	0x3e73869f	0.23781823
181	0xbe37f0b8	-0.1796292
182	0x3e009276	0.1255587
183	0x3e8291ea	0.2550195
184	0x3d1e52c8	0.038653165
185	0x3d039b80	0.03213072
186	0xbe7253f2	-0.23664835
187	0x3e6493db	0.22322027
188	0x3d847e0b	0.06469353
189	0x3c9ff594	0.01952628
190	0x3e3fbefa	0.18725196
191	0x3da06ac3	0.07832863
192	0xbe0b5178	-0.13605297
193	0x3e5b5d58	0.21422327
194	0xbd5be9a0	-0.0536896
195	0xbd724627	-0.059148934
196	0xbd0300ec	-0.0319833
197	0xbe3263b0	-0.1742084
198	0x3e6f1536	0.23347935
199	0x3e92353b	0.28556237
200	0xbe8922ef	-0.26784465
201	0x3e525a3a	0.20542231
202	0x3dc47bb3	0.09593906
203	0xbe79329e	-0.24335715
204	0x3b38afe6	0.0028181016
205	0xbc67c7b4	-0.014146734
206	0x3e45851f	0.19289063
207	0x3e8c13b2	0.27358776
208	0xbe207b54	-0.15672046
209	0xbe8fe206	-0.2810213
210	0xbe23406a	-0.15942541
211	0xbe70c2f0	-0.23511863
212	0x3e79023a	0.24317256
213	0x3d959136	0.073030874
214	0xbe52a848	-0.20572007
215	0xbe6e7b3c	-0.23289198
216	0xbe91f2f0	-0.2850566
217	0xbe8c4b43	-0.2740117
218	0x3c0a4e04	0.008441452
219	0x3e203c07	0.15647899
220	0xbd297abc	-0.041376814
221	0xbdc493cb	-0.09598502
222	0xbe38c296	-0.18042979
223	0xbdd94136	-0.10608141
224	0xbe8d9c50	-0.2765832
225	0x3dfb1abc	0.122609586
226	0xbd96ff95	-0.07372967
227	0x3d9e099a	0.07716675
228	0x3dc19ccf	0.09453737
229	0x3dfbb288	0.122899115
230	0x3da6fee6	0.08154087
231	0xbe1defbe	-0.15423486
232	0x3c7185e3	0.014741394
233	0x3d9c09e4	0.07619074
234	0x3e1671c3	0.14691834
235	0x3e5618d3	0.20907907
236	0x3e57537f	0.21027945
237	0xbe27d57e	-0.16390035
238	0x3e854397	0.2602813
239	0x3e8623cc	0.26199186
240	0xbe08386d	-0.13302775
241	0xbe02fa00	-0.1279068
242	0x3d02b8fe	0.031914704
243	0xbe8e1d5a	-0.27756768
244	0xbc881c4b	-0.016615054
245	0x3d4e3d5b	0.050351482
246	0x3e529bc6	0.20567235
247	0xbdf3876e	-0.118910655
248	0xbcd3180b	-0.0257683
249	0xbe265e0b	-0.16246812
250	0x3d231170	0.03981155
251	0xbe65a2b4	-0.22425348
252	0xbd78c538	-0.060734957
253	0x3ddc80f3	0.107667826
254	0xbe505836	-0.2034615
255	0x3e17f2ec	0.14838761

fc3.bias f4 [25]
0	0xbcf4dd86	-0.029890787
1	0xbd370948	-0.044686586
2	0xbcef768a	-0.029231329
3	0xbcefbe70	-0.029265612
4	0xbcd9a5f0	-0.026568383
5	0xbc855de9	-0.016280131
6	0xbcce8e18	-0.02521424
7	0xbb5f670b	-0.0034088518
8	0xbd0af953	-0.03392918
9	0xbc98901a	-0.0186234
10	0xbd1061fa	-0.035249688
11	0xbc94fc32	-0.018186662
12	0xbbefb658	-0.0073154382
13	0x3ca23607	0.019801153
14	0xbc4f9912	-0.012670772
15	0xbd2189e6	-0.03943815
16	0x3be88d6e	0.007096938
17	0xbc730418	-0.014832519
18	0xbd119ae4	-0.035548106
19	0xbd304ff2	-0.04304499
20	0xbcf88076	-0.030334692
21	0x3a962669	0.0011455539
22	0xbcd59dbc	-0.02607619
23	0xbbc19bd8	-0.0059084706
24	0xbc88743a	-0.016656984

fc4.weight f4 [3, 25]
0	0x3e5c6e9f	0.21526574
1	0x3e7aff97	0.24511562
2	0xbe91f716	-0.28508824
3	0xbed28090	-0.4111371
4	0xbeb0380e	-0.34417766
5	0xbe2c5edb	-0.1683306
6	0x3e12204b	0.14270131
7	0x3e191002	0.14947513
8	0x3dbe152b	0.09281381
9	0xbe0b3310	-0.13593698
10	0x3eba8927	0.36432764
11	0xbea59944	-0.32343495
12	0xbe5ce140	-0.21570301
13	0xbec0e4c8	-0.37674546
14	0x3e06b356	0.13154349
15	0xbe76d68a	-0.24105278
16	0xbedcd2d3	-0.43129596
17	0xbda9a6ab	-0.082837425
18	0x3ec088e0	0.37604427
19	0x3e86a3ea	0.26296932
20	0x3ec3b2c6	0.3822233
21	0xbe4e415f	-0.20142125
22	0xbd9a16ea	-0.07523902
23	0xbd41820b	-0.04724316
24	0xbe3b1998	-0.18271482
25	0xbd6f96f3	-0.058493566
26	0xbec1f2f8	-0.37880683
27	0xbe20e0cc	-0.15710753
28	0x3eca861f	0.3955545
29	0xbecaaf90	-0.3958707
30	0x3e9af69b	0.3026627
31	0xbe1d385a	-0.15353528
32	0x3e62ccd7	0.22148453
33	0xbe7325e4	-0.23744923
34	0xbe272e82	-0.16326335
35	0xbed11e7e	-0.40843576
36	0xbecb54f0	-0.3971324
37	0x3d815034	0.06314126
38	0xbd99e83e	-0.07515
39	0x3e39811b	0.18115656
40	0xbecd7f36	-0.40136117
41	0x3d56bb5e	0.05242478
42	0x3e5bf4f4	0.21480161
43	0xbe0986be	-0.13430306
44	0xbccc1cfb	-0.024916163
45	0xbe1f2ec8	-0.1554519
46	0x3c664498	0.01405444
47	0xbd086860	-0.033302665
48	0x3e5f72a3	0.21821074
49	0xbe05bbca	-0.13059917
50	0x3e89bf04	0.26903546
51	0x3e1e632a	0.15467516
52	0x3ea290b7	0.31751034
53	0xbe2e0cdc	-0.16997093
54	0xbd60192e	-0.054711513
55	0xbed510cb	-0.41614375
56	0x3e8b7768	0.27239537
57	0xbc881ad8	-0.016614363
58	0x3d34a31b	0.044100862
59	0xbe00470b	-0.125271
60	0x3e67681c	0.22598308
61	0x3e40f5c6	0.18843755
62	0xbec85788	-0.3912928
63	0xbe4b4a0e	-0.19852468
64	0x3e9f0960	0.3106184
65	0xbead0113	-0.33789882
66	0xbed76358	-0.4206798
67	0xbebe9eca	-0.3723052
68	0xbe277f1e	-0.16357085
69	0x3ecac336	0.3960206
70	0x3da833c6	0.08213
71	0xbec8974f	-0.3917794
72	0x3e19b440	0.15010166
73	0xbea19d3f	-0.31565282
74	0x3ed88b0f	0.42293593

fc4.bias f4 [3]
0	0xbd292957	-0.04129919
1	0x3cee4c42	0.029089097
2	0x3be7e878	0.007077273
