Pipeline/Models/ACTINN/MixedPrecision.pth (torch, 829204 bytes, 8 tensors)

fc1.weight f4 [100, 2000]
000000 0b dc 09 bd 28 4b a3 3b 78 1e 64 bd 06 eb 8d 39
       -0.033657115 0.0049833246 -0.05569312 0.00027068722
000010 e3 84 5a bc a8 a5 46 bd c4 00 44 bd b8 9e b7 bc
       -0.013337347 -0.048497826 -0.047852293 -0.02241455
000020 3b 47 2d 3d db 44 2f bc 84 1f d5 3c eb fc 14 bd
       0.04230426 -0.010697569 0.026016004 -0.036374014
000030 a8 72 5e bd 12 05 a1 bc 7e 41 0e 3d a8 be 5e bd
       -0.054308563 -0.019655738 0.034730427 -0.054381043
000040 56 e9 8e 3a 3a f9 22 bc 87 96 3e bd cc 50 b5 bc
       0.001090328 -0.009947116 -0.046530273 -0.022133254
000050 aa b9 12 3d 9c 5c 63 3c bf bb 03 bd 1e c7 54 bd
       0.035821594 0.01387706 -0.03216147 -0.051947705
000060 83 6a 4f bd 80 c4 3c 3c 72 03 88 3c 33 21 b2 3c
       -0.050638687 0.011521459 0.016603205 0.021744346
000070 3e 46 2f 3d ef 3b 87 3b 26 8b a5 3c 1b 4d 57 bc
       0.042791598 0.0041270177 0.020207953 -0.013140942
000080 66 04 01 3d 36 bb 74 bc b3 e1 ad bc 3c 9c 61 bc
       0.031498335 -0.014937213 -0.021225786 -0.013770159
000090 a4 59 0c bc e7 a4 1e 3d 23 3b 4b bd bb 89 bd 3c
       -0.008566294 0.038731482 -0.049616944 0.023136964
0000a0 d3 c5 c7 3c c3 28 45 bc 3f 08 08 3c 1e 13 30 bd
       0.024386322 -0.012033644 0.008302747 -0.04298698
0000b0 c7 49 53 bd ab d4 b3 bc e6 1e 95 3b df 75 d7 bb
       -0.05158403 -0.021951994 0.0045508025 -0.0065753306
0000c0 88 1b 2a 3c bb 17 10 3d aa 7d fa 3b 16 1f 32 bd
       0.0103825405 0.03517888 0.007644375 -0.043486677
0000d0 ca a8 8c 3c ac e8 7d 3c 77 8f 1b bc eb cd 96 bc
       0.017170329 0.015497368 -0.009494654 -0.018408736
0000e0 62 2d 8a 3c af e1 cd bc 5c 02 e6 bc b3 1e 25 bd
       0.016867343 -0.025132028 -0.028077297 -0.04031248
0000f0 62 72 92 bc a2 ec 29 bd c3 16 c8 bb 98 0e 16 bd
       -0.017876808 -0.041485436 -0.006106229 -0.03663501
000100 be b1 eb 3c ad 1a 90 bc b0 05 83 bc 98 fd 28 bd
       0.028771278 -0.017590845 -0.015993923 -0.04125747
000110 16 17 5c bd 73 52 a9 ba b6 e3 ed 3b 7b 54 b0 3a
       -0.053732954 -0.0012918249 0.0072598113 0.0013452912
000120 7c a4 c9 bc 0b fa 95 bc c3 f0 5f 3c e3 04 66 bc
       -0.024614565 -0.018307706 0.013668242 -0.014039251
000130 c8 f9 70 3b 46 c5 28 3b 2b 2b f2 bc 56 65 4d bc
       0.0036769975 0.002575235 -0.0295616 -0.012536367
000140 97 13 2e bb b3 d2 87 bc 76 06 39 3d ec ac 11 bc
       -0.002656197 -0.016579961 0.045172177 -0.008891325
000150 ce ca 33 3c 63 9a 58 bc 44 e7 3e 3d db 63 4e bd
       0.010973645 -0.013220402 0.04660727 -0.0503882
000160 4f 29 dc 3b 10 36 5e bd 52 1a 91 ba a8 78 47 3d
       0.0067187916 -0.054250777 -0.0011070466 0.04869905
000170 fa 6c 1e 3d 2f 08 10 3d 9b 08 48 3d b3 49 59 bc
       0.038678147 0.035164054 0.04883633 -0.0132622
000180 db 2b b1 3b 53 7a 4b 3d e8 78 61 bd fb 1a a9 3c
       0.0054068393 0.049677204 -0.055046946 0.020642748
000190 db 1f c3 3c 74 a7 5c 3c 0f d6 67 bc 4c 66 5b 3c
       0.0238189 0.013467658 -0.014150157 0.013391089
0001a0 9e eb 8a bc 0b bd 43 3d 56 d7 5a bd 44 12 26 bc
       -0.016958054 0.047787707 -0.053428017 -0.010136191
0001b0 ac 8c 62 bd db 9a 0a 3d 18 db bb 3b 4b e6 65 bc
       -0.055309936 0.033839088 0.005732905 -0.014031957
0001c0 80 91 70 3c c3 21 c8 bc 63 5c 48 3d 0e 9c e9 bc
       0.014683127 -0.024430161 0.04891623 -0.028516795
0001d0 b4 c2 11 3d e0 38 43 bd 93 c0 fb bb 66 92 e1 3c
       0.035586074 -0.047661662 -0.0076828687 0.027535629
0001e0 90 47 c5 3c 90 8f f2 bc cb cf ea bc 93 f6 2e bd
       0.024081975 -0.029609472 -0.028663537 -0.04271562
0001f0 a0 8e 0f bd 57 f7 2d 3b e6 59 1e bd d6 1a 05 ba
       -0.035048127 0.002654513 -0.038659953 -0.0005077546
000200 16 8d 20 bd 68 79 86 bc b4 bc a1 bc 16 01 00 bd
       -0.03919705 -0.016415313 -0.019743301 -0.031251036
000210 df db 4f 3c 8b 97 de 3c fe 09 70 3c 8c b5 8e 3c
       0.012686699 0.02717187 0.01465082 0.017420553
000220 e2 2c a3 bc c2 2f 0d 3d d7 cd 1d bd 84 2a 21 bd
       -0.019918863 0.034469374 -0.038526382 -0.039347187
000230 00 42 d9 3c 27 08 01 bd 82 7e 81 3c a8 13 73 3c
       0.026520729 -0.031501915 0.015807394 0.014836229
000240 62 5f 28 bd d8 5e 54 3d 34 16 80 bc d0 5d cb 3c
       -0.04110659 0.051848263 -0.015635587 0.024825007
000250 44 fc c2 bc bf 5a b7 3b f0 04 e4 bc 94 61 34 3d
       -0.02380193 0.0055955346 -0.027834386 0.04403837
000260 53 98 ee 3b 00 4a 4e bd b0 04 d0 3c f3 f7 3e bc
       0.007281342 -0.05036354 0.02539286 -0.011655795
000270 50 41 2f 3d a8 3f 6f 3c 67 20 fb 3c 0e 76 9e 3c
       0.042786896 0.014602579 0.0306551 0.019343402
000280 7b c0 d4 bc 07 42 83 3c 4b bf 38 3c 22 7d 0f 3b
       -0.025970688 0.016022695 0.011276077 0.0021894653
000290 80 d9 37 bd b0 8a fe ba 4b 0b b0 3c 23 6f 58 bb
       -0.04488516 -0.0019419994 0.02148976 -0.0033025227
0002a0 76 e2 f6 bc aa 3b 81 bc 9b 06 33 3d b7 62 cb 3c
       -0.030137282 -0.01577552 0.04370747 0.024827344
0002b0 c6 c8 eb 3b 0b ef 41 bc 2e b7 de 3c ef a6 24 3d
       0.007195565 -0.011836777 0.027186956 0.040198263
0002c0 f8 21 be bc 6e 02 a7 bc 26 53 7a 3b 93 d0 09 bd
       -0.023209557 -0.0203869 0.0038196533 -0.033646178
0002d0 b6 19 1a bd 3b 42 58 bd 70 ca 23 3c a6 ed 2c bd
       -0.037622176 -0.052797537 0.009996995 -0.042218827
0002e0 03 b9 12 bd bf bc 44 3d 66 b2 0d bb 2b a9 ff 3c
       -0.035820972 0.048031565 -0.0021621226 0.031208595
0002f0 68 1c 13 bd a6 b2 d0 ba fc 29 a3 bc 96 26 f4 bc
       -0.035915762 -0.0015922382 -0.01991748 -0.029803555
000300 f3 b8 d5 3c 5b d5 68 3c 03 19 37 3d 03 f7 e5 bb
       0.026089167 0.014211024 0.044701587 -0.0070179715
000310 1e 7f a4 bb 53 f0 33 bd 0e ce 11 3c 40 4c 24 3d
       -0.0050200364 -0.043930363 0.008899225 0.04011178
000320 94 c4 32 3d 8c 36 5c bd 13 1d 2c 3d 9e cc 99 3c
       0.043644503 -0.053762957 0.042019915 0.018774327
000330 6c 29 54 bd b8 97 8e bb 77 9d 83 bc a7 fb 2c bd
       -0.051797315 -0.0043515824 -0.016066296 -0.042232182
000340 86 f7 ff bc bb 86 45 3d 12 c2 0f bd 36 b5 4e bd
       -0.031245958 0.048224192 -0.03509719 -0.050465785
000350 ea 19 a4 bc c6 3d 08 3d 43 ed 39 bd 24 1d 29 bb
       -0.020031888 0.033262037 -0.045392286 -0.0025804723
000360 16 c5 51 bd fc de 50 bd e3 a9 36 bd 8b 93 3d 39
       -0.051213346 -0.050993904 -0.04459561 0.00018079409
000370 5e 4a 0a 3d 77 4b 4c 3b bc a7 9d bc 70 b3 3b bb
       0.03376233 0.003117291 -0.019245021 -0.0028640889
000380 ee a6 ea 3c e3 da 67 bd 6e ea 25 3d 5c 83 40 bd
       0.028644051 -0.05660523 0.040506773 -0.047000274
000390 fe af 51 3c 06 33 87 3c 92 d8 07 3d 2c 65 47 bd
       0.012798307 0.016503822 0.033165522 -0.04868047
0003a0 08 91 c0 3b ac 2c 46 bc 8e df 0c 3d 6b 0a 72 3c
       0.005876664 -0.012095612 0.034392886 0.014772992
0003b0 fa 7b 06 bc 97 2a 1e 3d 06 19 e3 bc 4e 03 b5 bc
       -0.008208269 0.038614836 -0.027721893 -0.022096302
0003c0 0c f0 57 bc f8 eb 31 3d 9f 4e 1e bd a8 75 01 3d
       -0.01317979 0.043437928 -0.038649198 0.031606346
0003d0 ee ce 2d 3d 58 a5 2d 3d e6 1b fa bc 66 68 09 bd
       0.04243367 0.042394012 -0.030530881 -0.033546828
0003e0 40 5a 2d bb f6 b5 90 3c 3b c1 ab 3c e6 86 c3 bc
       -0.0026451498 0.01766489 0.020966163 -0.023868036
0003f0 02 c4 26 3d cc 87 19 3d 6c fa 6d bc 7b f4 15 bd
       0.04071427 0.03748302 -0.014525037 -0.036610108

fc1.bias f4 [100]
000000 40 99 8e 3b ae 32 a9 39 4b 37 9c bb a8 45 30 bb
       0.004351765 0.0003227195 -0.0047673336 -0.0026896987
000010 08 2d 6e bb c0 6d 88 bc bd cb 06 bb f4 a3 03 bc
       -0.0036342759 -0.016653895 -0.0020568215 -0.008034695
000020 9b 4c 25 bc c8 9d 30 bb 00 47 00 bc 00 4a 45 b7
       -0.010089065 -0.0026949514 -0.007829428 -1.17593445e-05
000030 00 00 00 00 86 c3 69 bb 82 68 e2 bb ce 96 6d bb
       0.0 -0.003566952 -0.006909431 -0.0036253217
000040 7b a8 8b bb 64 c6 f1 3a 4f 7b e0 bb 00 00 00 00
       -0.004262028 0.0018445966 -0.006850637 0.0
000050 20 85 31 bc 6e 2a bb ba cb 52 f3 bb 03 e1 3d bc
       -0.010834962 -0.0014279613 -0.007425641 -0.0115892915
000060 e8 a7 eb bb ea cd 15 bc 9a 8c 8a 3b 73 31 58 bc
       -0.007191647 -0.009143332 0.004228187 -0.013195383
000070 d6 06 00 bb fe 89 d0 bb 90 74 59 39 44 ab 8d 3b
       -0.0019535325 -0.006364106 0.00020738156 0.004323395
000080 7f 72 ca bb ce 9b 2c bc cf 2a b9 39 e8 0d ee bb
       -0.0061782 -0.010535194 0.00035317845 -0.0072648413
000090 a8 d0 84 bc 88 35 98 bc db 77 a4 bb 00 00 00 00
       -0.016212776 -0.018580213 -0.0050191707 0.0
0000a0 46 02 ae bb dd 30 8c bc e6 08 5f bb 1a d0 a8 bb
       -0.0053103296 -0.017113144 -0.0034032403 -0.0051517608
0000b0 16 54 07 b8 af 9d 9f bc 00 00 00 00 28 aa 80 bc
       -3.226482e-05 -0.01948437 0.0 -0.015706137
0000c0 33 3f 24 bc e2 e6 36 bc 39 bd 29 bc 1e be 66 bb
       -0.0100248335 -0.011163445 -0.010360056 -0.0035208534
0000d0 54 1c b1 bb 83 5c 2c ba 13 fd ff bb 21 86 a4 bb
       -0.0054049883 -0.00065750646 -0.007812151 -0.005020872
0000e0 5e 2c e1 bb eb cc 64 bb f6 c9 51 bc 80 e3 0a bc
       -0.006871744 -0.003491218 -0.012804499 -0.008477092
0000f0 e2 a6 4c bb 92 4a 0c bc 28 92 7f bb 56 2b 68 bb
       -0.00312274 -0.008562701 -0.0038997028 -0.003542622
000100 38 98 76 bc 78 64 d8 bb 56 ae cd bb ab 4e 22 bc
       -0.01505094 -0.0066037737 -0.006276886 -0.009906451
000110 7f e0 8b bb 52 26 9b bb 00 00 00 00 bc db bb bb
       -0.0042687054 -0.0047347927 0.0 -0.0057329815
000120 a5 08 02 bc 0a 14 06 3c 08 29 4c bb d8 fc da bb
       -0.007936631 0.008183489 -0.0031152386 -0.0066829734
000130 5c 15 06 3c ee 96 c4 bb db bc 98 3a ce 7e 1d bc
       0.008183803 -0.0059994375 0.0011652963 -0.009612752
000140 d0 93 65 bb 48 c8 21 ba 14 25 91 bc 93 1e 3e bb
       -0.003503073 -0.0006171507 -0.017717876 -0.0029009923
000150 1e 79 83 bb 2b 7c 32 38 b6 75 7f bb c3 09 07 bc
       -0.004012241 4.2554148e-05 -0.0038980073 -0.0082420735
000160 33 1b 2d bc f3 35 b7 bb 94 14 47 bc e6 8c 02 3b
       -0.010565567 -0.005591148 -0.012150902 0.0019920408
000170 9b 79 39 bb 66 08 46 b9 d0 2e ed bb f8 d3 0a bc
       -0.0028301242 -0.0001888588 -0.0072382465 -0.008473389
000180 4d ac 16 bc 1b 42 1f bb 7f 64 2d bb 9f 29 b4 ba
       -0.009196353 -0.0024300877 -0.0026457605 -0.0013745314

fc2.weight f4 [50, 100]
000000 a6 a0 fa 3d 75 2f 20 3d 83 0b 2d 3e 58 38 1e bd
       0.122376725 0.03910776 0.16898923 -0.038627952
000010 18 41 12 bb 3f f0 61 bd de 3a 6d bd f4 4b 13 3c
       -0.002231663 -0.055160757 -0.05791747 0.008990277
000020 c7 4b 9b bd 86 6f e1 bd ae 0a dc 3d 0c 58 be bd
       -0.07582813 -0.110075995 0.107442245 -0.09294137
000030 c0 12 d0 bb 5d 96 97 3d e3 0a f8 bd 16 73 03 3e
       -0.0063498914 0.074017264 -0.121114515 0.1283687
000040 d0 70 45 be 7e e0 b3 bd cc 4b 3e 3e 57 57 1f 3e
       -0.19281316 -0.08783053 0.18583602 0.15560661
000050 64 1b c0 3c bb 38 a5 bd 54 20 4b bd c4 ea 2f be
       0.02345056 -0.08067461 -0.049591377 -0.171794
000060 50 e8 08 3e a0 94 84 bd 94 f4 08 be 88 4f 4c be
       0.1336987 -0.064736605 -0.13374549 -0.19952214
000070 66 8a 92 3d c4 fc 51 3d 80 94 4a 3d 62 b9 36 be
       0.07155304 0.051266447 0.049458027 -0.17844155
000080 8c d3 d9 bc 8a 3c 9f bd a2 19 8b bc b3 3d 1e 3e
       -0.026590131 -0.07775219 -0.016979996 0.15453224
000090 a6 8e 12 be 54 31 b4 3d f2 13 b2 bd 56 21 0a be
       -0.14312229 0.08798471 -0.086952105 -0.13489279
0000a0 13 21 74 3d b6 5d 28 be fe ed 03 3e 13 0b d1 3d
       0.059601855 -0.16441998 0.12883756 0.1020719
0000b0 2c 08 00 3b 65 00 9e bd 23 a6 e9 3d e8 cb 52 bd
       0.001953612 -0.07714919 0.11408641 -0.05146399
0000c0 dc 61 76 3d 5a dd 1d 3e 30 d0 2f 3e e8 67 bf bd
       0.06015192 0.1541647 0.17169261 -0.093459904
0000d0 2f d8 91 bd 2a b3 0e 3e 2e 8f a9 3d 9f f5 1e 3e
       -0.07121312 0.13935533 0.082792625 0.15523385
0000e0 18 fc 2d be f3 b0 24 bd eb 62 3a be eb c3 f8 bc
       -0.16990697 -0.040207814 -0.18201797 -0.030366858
0000f0 4b 1a 2d 3e 28 bd 89 3d 1a 56 11 be 0e 5c 10 3e
       0.16904561 0.06725532 -0.14193001 0.14097616
000100 da 70 a3 3d c6 ee 16 3e 77 86 40 ba f6 f3 1c 3e
       0.07980509 0.14739522 -0.00073442556 0.15327439
000110 ac ed 0c 3e 85 64 9e bd 00 6a c2 bc 7c 17 9b 3c
       0.1376254 -0.07734016 -0.023732185 0.018932097
000120 6e 08 2e be f7 97 f6 3d 3e 7e 34 be 3a 7e 84 bc
       -0.16995403 0.12040704 -0.17626283 -0.01617347
000130 33 fb 5a 3d 44 16 37 3e 5c 67 ab bd 33 0a f2 bc
       0.05346222 0.17879587 -0.083693236 -0.029545879
000140 eb 40 ab bc ee 67 1f 3e c6 ad 5d bd 33 59 6c 3a
       -0.020904979 0.1556699 -0.0541208 0.0009015977
000150 be f5 3d be 94 fb 19 be a6 20 72 bd 0b 4b 7f 3d
       -0.18550774 -0.15037376 -0.059113167 0.062327426
000160 7e 31 49 bc e0 27 a9 3c 76 09 63 bd 0e 8e d0 3c
       -0.012279866 0.020648897 -0.055428945 0.025458362
000170 30 b0 98 bd 5a dc 04 be 1e a2 3b be ab ed f9 bc
       -0.0745548 -0.12974682 -0.18323562 -0.030508837
000180 33 6f 0d 3d 9f e4 29 be a0 93 18 3e a6 11 18 3e
       0.034529876 -0.16591118 0.14900064 0.14850482
000190 68 34 fb bd be f2 a2 bc b4 71 83 3b 36 a3 0a be
       -0.12265855 -0.01989114 0.004011357 -0.13538823
0001a0 fe 5d 40 3d 84 2d 5a be 1b 79 f1 bd 82 48 63 3d
       0.046964638 -0.21306425 -0.11790677 0.05548907
0001b0 b6 e3 f4 ba f3 2d d2 3d 8e 71 f5 3d d0 dd be bc
       -0.0018683586 0.1026267 0.119845495 -0.023299128
0001c0 80 5a 2c 3b 4e 05 3d 3e e3 d9 b5 bd 06 72 3f 3e
       0.002629906 0.18459055 -0.08879449 0.1869584
0001d0 f8 71 fa bd 74 21 11 bc 08 02 04 3d c3 8a da 3d
       -0.12228769 -0.0088580735 0.0322285 0.10670998
0001e0 ff 6c 35 3e 96 67 2d 3e 93 75 91 bd 0e 0e e7 3d
       0.1771736 0.16934046 -0.07102504 0.112819776
0001f0 4f f4 04 be 4e 21 26 be 63 9e 64 bd 28 9e aa bb
       -0.12983821 -0.16223642 -0.05581511 -0.005206842
000200 da ce 16 3e 2c 62 1a be 18 c4 6c 3d 0f 62 d7 bc
       0.14727345 -0.15076512 0.057804197 -0.026291875
000210 f2 a1 0d 3d 58 8a fd bd fe 41 8d bb c6 0c cd 3d
       0.03457827 -0.123799026 -0.0043108454 0.10012202
000220 63 a7 4a 3d 7c 0e 0d 3e 0a e8 f2 bc 40 d7 e1 bc
       0.04947604 0.13775057 -0.02965166 -0.02756846
000230 58 c5 0f 3e 23 b1 b5 3d 1a 6c 0d be c6 e5 01 be
       0.14040124 0.08871677 -0.13810769 -0.12685308
000240 8e aa d3 bd 86 7c 42 be 53 28 0d be 8f d3 99 3d
       -0.10335265 -0.18992814 -0.13784914 0.07511055
000250 23 5b c5 bc 74 fe 27 3e e4 f4 44 be b4 3d 3c be
       -0.024091309 0.1640566 -0.19234043 -0.18382913
000260 8e fd 9d bd 5c e2 2d 3e e0 d5 98 3c a8 6f 19 be
       -0.07714377 0.1698088 0.018656671 -0.14984
000270 9e 8c 3b 3c 24 8e 28 be a0 2c ca 3d 4c 1a 3b 3e
       0.0114471 -0.16460472 0.09871793 0.1827175
000280 4e ff f7 3d 4f 32 0a be ea 5e 90 3d f4 6a 16 bd
       0.121092424 -0.13495754 0.070493534 -0.036723092
000290 eb d7 0f be 46 1e 16 be be 8f 1b 3e bf 88 6b bb
       -0.1404721 -0.14659986 0.15191552 -0.0035939661
0002a0 35 eb 15 3e 86 cd 33 3e 3b 5c fb bd 5c 2e 32 3e
       0.14640506 0.1755887 -0.12273451 0.17400497
0002b0 10 3a b8 3d f8 ee 05 be 98 40 03 3d 94 a8 02 be
       0.089954495 -0.1307944 0.032044023 -0.1275962
0002c0 c8 ce 38 3e e6 ec 2e be 3a c0 65 3c f3 bb bf bd
       0.18047631 -0.17082557 0.014022881 -0.0936202
0002d0 5e 98 44 be cf f7 c2 3c e8 47 b0 bd 20 a6 c5 bd
       -0.19198748 0.023799805 -0.08607465 -0.096508265
0002e0 1a 15 24 be 4c c1 5b 3c 48 eb 3f be a8 2a 4c 3d
       -0.16023675 0.013412785 -0.18742096 0.049845368
0002f0 d8 de 5c 3c ee e9 eb 3d 4e fa ec bd 90 f2 16 bd
       0.013480864 0.11519228 -0.11571179 -0.03685242
000300 56 e7 aa 3d 47 86 5c bc 58 38 e2 bd 94 53 04 3d
       0.08344905 -0.013459749 -0.11045903 0.03230627
000310 00 5b 9e bd b0 4e b0 bc db 8f 23 bd 74 86 b8 3d
       -0.077322006 -0.021521896 -0.039932113 0.0901002
000320 6a ab 28 bd 26 f1 2f be 25 03 00 3d eb 8a c6 bc
       -0.0411791 -0.17181835 0.031253 -0.024236163
000330 c8 81 b5 3d 0d a5 0c be b2 94 9e 3c 17 38 01 3c
       0.088626444 -0.13734837 0.019358013 0.007886908
000340 4d 1b 1f be e6 3c d5 3d 86 1c 5d 3d 3f b2 3c bc
       -0.15537758 0.10412006 0.05398228 -0.011517107
000350 86 6b 33 3e d3 7f 7c 3d 70 fe c8 3d 4b 58 81 3c
       0.17521486 0.06164534 0.09814155 0.015789172
000360 2f 10 4c bd 2a eb 65 3d ee e7 25 3e e8 74 d4 3c
       -0.04982012 0.056132473 0.16201755 0.025934651
000370 0a d6 8b bd b8 b4 8c bd a0 35 f6 3d 6b 0b d3 bd
       -0.06827934 -0.06870407 0.12021947 -0.10304912
000380 69 88 14 be c0 68 d9 bd 5f 41 72 3b 47 9f 40 bd
       -0.14505161 -0.106156826 0.0036965234 -0.0470269
000390 83 ce 56 bb f3 b3 61 3d 54 62 2b bc 2e 00 cc 3d
       -0.00327769 0.055103254 -0.010460455 0.09960972
0003a0 7a 06 19 be f0 42 ac 3d 20 28 f7 bd 40 ec 7b bd
       -0.14943877 0.08411205 -0.120682 -0.061504602
0003b0 37 7f cd bd ba 88 d8 3d 2c 63 c0 3d 26 33 94 3d
       -0.1003403 0.105729535 0.093939155 0.07236318
0003c0 68 7b 3d bd 9a 12 0e 3e 4f 28 28 3e 88 8d 38 3e
       -0.046260267 0.13874283 0.16421627 0.1802274
0003d0 ee ab 59 bd 76 f3 05 3e 4a cd 13 be 08 f0 7a bd
       -0.05314248 0.13081154 -0.1443378 -0.061264068
0003e0 64 14 00 3d 9b 85 cf 3d 07 70 cb bc 04 93 34 3d
       0.031269446 0.10132905 -0.024833692 0.044085518
0003f0 98 34 81 bd 98 2b a6 bd f8 52 56 3d 28 13 44 be
       -0.063088596 -0.081137836 0.05232522 -0.19147933

fc2.bias f4 [50]
000000 64 ef db bb 06 fa cf bc 98 eb 00 bd 99 41 8c bc
       -0.006711887 -0.025387775 -0.03147468 -0.017121123
000010 e4 b7 c8 3c aa 63 89 3c 6b b5 da b9 b3 58 ff 3c
       0.024501748 0.016771156 -0.00041715367 0.031170225
000020 86 a5 05 bd 9c 95 4f 3c ae 75 ab bc 20 36 b6 bc
       -0.03262856 0.012669947 -0.020930137 -0.022242606
000030 2a 6c da bc a2 80 0b bd 16 95 50 bc 68 4c 3a bc
       -0.026662905 -0.03405822 -0.012730857 -0.011370756
000040 45 d7 1a bd 6e b4 8d bc b6 30 bd bc e8 e0 f6 bb
       -0.037802953 -0.01729795 -0.023094516 -0.007534135
000050 94 78 17 bc 87 5b e8 bc f2 7c bf bc ce f4 62 bc
       -0.009245057 -0.028363956 -0.023375008 -0.013852311
000060 0b 66 17 bc 3a 31 9e 3c 06 13 10 3c bf bc 3e bc
       -0.0092406375 0.019310582 0.008793598 -0.01164168
000070 1c 0e 51 bc 43 6f 77 bc 86 5e 21 3c 60 72 55 bc
       -0.012759712 -0.01510221 0.009849196 -0.013027757
000080 f0 9f 4a bc 68 77 b9 bc 97 87 33 bc 0b 53 8e bc
       -0.012367234 -0.022639945 -0.01095762 -0.017373582
000090 2e 93 a6 bc f4 ac 5d bc a2 49 b6 bc ff 2b 9e 3b
       -0.020333853 -0.013530005 -0.022251908 0.004827022
0000a0 86 ca bc bc 2e a6 27 bc 80 f0 7b b9 76 7e b6 bc
       -0.02304579 -0.010232491 -0.00024026819 -0.022277098
0000b0 a2 79 c0 bc 8a 7b eb 3a 3c 89 b2 bc 42 06 90 bc
       -0.023495499 0.0017965895 -0.021793954 -0.017581109
0000c0 7c e9 f8 3b ca b7 a8 bc
       0.007596193 -0.02059545

fc3.weight f4 [25, 50]
000000 0c d1 65 3e c0 f5 52 be 0c b9 29 3c 8b 22 b4 3d
       0.22443026 -0.20601559 0.01035906 0.08795651
000010 50 b2 6c 3e b6 f7 74 be b2 f1 47 be a3 26 71 bc
       0.23114896 -0.23922619 -0.19525793 -0.014718684
000020 3b cc 0e 3e 60 ef a8 bc 96 8e 37 be d0 56 12 3e
       0.13945095 -0.020621955 -0.17925486 0.14290929
000030 88 33 84 be 6b 2a 18 3e 73 b7 1f 3e 7b aa 46 be
       -0.25820565 0.14859931 0.15597324 -0.1940097
000040 06 89 04 3e ac b1 09 be a8 00 73 be b6 a3 54 be
       0.12942895 -0.13446683 -0.23730719 -0.20765576
000050 c6 82 16 3e b2 f4 ff bd bc 70 39 3e 22 f0 8b be
       0.14698324 -0.12497844 0.18109411 -0.27331644
000060 97 4c 9d 3d 6e 13 6f 3e 76 e4 32 3e 8c bc 16 3d
       0.07680624 0.23347256 0.17469963 0.036800906
000070 e3 1f 77 3e db df 83 3e d2 9e 13 be 6b 5f 60 be
       0.24133258 0.25756726 -0.14416054 -0.21911399
000080 08 0d 0f be 3a 44 89 be a0 01 ec bd 2f 7a eb 3d
       -0.13969815 -0.26809865 -0.115237474 0.11497914
000090 92 c7 eb 3d 4a bc 55 3e aa 4f 29 3e 18 13 a6 3b
       0.115126744 0.20872608 0.16534296 0.005068194
0000a0 cd 52 83 3d 06 1c 5f be 63 17 7e be dc 8a be 3d
       0.06412277 -0.21788034 -0.24813609 0.09303829
0000b0 58 a7 dd bb bb e0 90 be 08 e9 03 be 74 11 33 3e
       -0.0067643337 -0.28296456 -0.12881863 0.17487127
0000c0 53 08 66 be 96 35 c1 3d a6 e7 67 be aa 40 04 3e
       -0.22464113 0.09434049 -0.2264696 0.12915292
0000d0 03 99 59 3e 98 c1 36 3e 93 7e 62 bd d2 f6 8c be
       0.21249776 0.17847288 -0.05529649 -0.2753206
0000e0 80 da d3 bd 28 04 82 be 19 6d 87 be 96 43 06 be
       -0.1034441 -0.25393796 -0.26450422 -0.1311172
0000f0 07 4e 5b 3d 70 c4 1c be e2 26 2c 3e bf 03 3a 3e
       0.05354121 -0.1530931 0.16811708 0.18165492
000100 34 8b 15 3e 18 83 d4 3d af a4 65 3e 24 58 83 3d
       0.14603883 0.10376567 0.22426103 0.06413296
000110 4f a9 cc 3d 93 62 b5 bd ea 2c 49 be 6f b1 2d 3e
       0.099932306 -0.08856692 -0.1964604 0.16962217
000120 8b 72 73 3e f0 de 81 bc 2f 16 88 bb 0b 66 11 be
       0.23774163 -0.015853375 -0.004153035 -0.14199083
000130 80 23 60 3e 77 64 ac 3c 57 14 75 be f4 54 94 3d
       0.21888542 0.021044 -0.2393354 0.07242766
000140 f0 0f b3 bd 02 e8 4d bd 18 fa a3 3d 04 44 08 3e
       -0.08743274 -0.050270088 0.08006686 0.13307196
000150 ae 9d 72 be c6 a4 ec bd af bc 95 be cb ec 27 3d
       -0.23692963 -0.115548655 -0.29245517 0.040997308
000160 50 75 8b 3e 0e 3d 93 be 78 46 fc bd d4 95 07 3e
       0.2723794 -0.2875752 -0.12318128 0.13240749
000170 16 e1 82 bd f3 9a 37 be 4f f4 1b be be 92 92 be
       -0.06390588 -0.17930202 -0.15229915 -0.2862758
000180 8b 95 42 3e 86 9d 20 be 8a ee 69 be 00 aa 41 3e
       0.19002359 -0.1568509 -0.22844902 0.18912506
000190 0f 20 20 be 18 fb 9f bd ca e1 54 be 8c 9e 2a 3e
       -0.1563723 -0.07811564 -0.20789257 0.16662043
0001a0 ed 08 9c bd e3 8d 6d be b0 bc 67 be b8 8d 2d be
       -0.0761889 -0.23198657 -0.22630572 -0.16948593
0001b0 b0 14 86 3e 63 f1 06 3e 7b ca bb bd 73 3e 11 be
       0.26187658 0.13178019 -0.091694795 -0.14183979
0001c0 e3 da 7b be ec 51 52 3e c8 40 97 3c c3 22 fd bc
       -0.24595217 0.20539063 0.018463507 -0.030900365
0001d0 60 1a e8 3d 56 bd 16 bc 06 06 71 bd d6 db 8c be
       0.11333156 -0.009200415 -0.058843635 -0.27511472
0001e0 f8 18 dd bd 53 f1 3c 3e d0 74 e9 bc 1a 86 03 be
       -0.10795778 0.18451433 -0.028498083 -0.12844124
0001f0 52 6d 55 3e 10 80 0d 3e 2a a1 b4 bd e2 e1 2d be
       0.20842484 0.13818383 -0.08819802 -0.16980699
000200 32 4a 25 be 30 e4 93 be 36 0a dc 3d 88 5b d8 3d
       -0.16141585 -0.2888503 0.10744135 0.10564333
000210 30 72 56 3c d3 c2 01 bd 80 ae 85 be e6 26 4a 3d
       0.013088748 -0.03167994 -0.26109695 0.049353503
000220 80 38 3e 3e 56 66 0e bd 12 ff 0f be de 38 04 3e
       0.1857624 -0.034765564 -0.14062145 0.12912318
000230 2b 19 9f 3d e7 54 5a be 9c 31 8e be 3b 2c 5b 3e
       0.07768472 -0.2132145 -0.27772224 0.21403591
000240 a7 00 4f be 8f a3 5b bd 1f f9 6e 3e 84 28 4e 3d
       -0.20215093 -0.05362278 0.2333722 0.050331607
000250 82 77 ca bc ac 70 87 3e b6 1b df bb 38 75 06 3e
       -0.024715189 0.2645315 -0.0068087233 0.13130653
000260 86 90 af bd ae 85 2f 3e 43 de bf bd 53 8d 5f be
       -0.085724875 0.17140839 -0.09368565 -0.21831255
000270 98 32 90 be a6 38 fd bd b2 0f 80 3e 28 da 52 3d
       -0.281636 -0.123643205 0.25011975 0.05147758
000280 40 a9 26 3d 70 62 51 bc 22 34 55 bd 62 fd 80 3e
       0.040688753 -0.012779817 -0.05205167 0.25193316
000290 f4 92 a1 bd 4a 01 cf 3d 38 93 ba bc 8a 4a 48 3e
       -0.07889357 0.10107668 -0.022775277 0.19559684
0002a0 f7 20 77 3e ab 99 80 bd 1e bc dd 3d bb 83 6c 3d
       0.24133669 -0.0627931 0.10826896 0.057742815
0002b0 2b f8 4c bd 3e a7 88 be 88 bb 10 be 50 a0 40 3e
       -0.05004136 -0.26690096 -0.14134037 0.18811154
0002c0 36 d7 5f 3e 98 7a 22 be cb 00 5c bd a2 56 bf bd
       0.2185944 -0.15867078 -0.053711694 -0.09342696
0002d0 20 45 f9 bd b4 c0 a8 bd 72 d4 96 3d a7 70 f0 3c
       -0.12171388 -0.0823988 0.073647395 0.029350592
0002e0 83 82 5c be da e3 6c be 8c e5 09 3e fe e0 55 be
       -0.21534161 -0.23133793 0.13466471 -0.20886609
0002f0 94 7e 1c 3d 0a d7 55 3e 1a 14 72 be 84 a2 32 3e
       0.03820665 0.20882812 -0.2364048 0.17444807
000300 03 0a 4c bd 23 33 60 bc 8c 7e 87 3d 9b d9 7f be
       -0.049814235 -0.013684067 0.06615934 -0.24985354
000310 67 68 39 bd 57 c5 87 be 26 83 75 be 10 bd 74 3d
       -0.04526558 -0.26517746 -0.2397581 0.059750617
000320 bb ab 0e 3e d0 f8 0b 3e 20 31 76 3e 13 3a 6e be
       0.13932697 0.13669133 0.24042177 -0.23264341
000330 7b fd 7e 3d 68 80 9b be f8 0f d8 bd fb cb 64 be
       0.062253457 -0.30371404 -0.10549921 -0.22343437
000340 94 69 89 3c 84 ed 73 be 1e 56 a4 bd d6 cd a2 bd
       0.016773976 -0.23821074 -0.08024238 -0.07949416
000350 5c 6a 33 3e 73 f2 4c be 1f 21 88 be da 20 2b 3e
       0.17521042 -0.20014362 -0.2658777 0.1671175
000360 3a bf 06 3e c7 06 98 3d 00 8b 3e 3e 13 86 62 bc
       0.13158885 0.07423168 0.18607712 -0.013825911
000370 20 96 48 be be 1f bb bc d7 80 7f 3e b6 6c 53 3e
       -0.19588518 -0.022842284 0.24951492 0.20646939
000380 78 b6 80 3e 8e 9c b0 bb ac ae 28 be 53 0a 8f be
       0.25139213 -0.0053897565 -0.16472882 -0.27937564
000390 52 b5 81 3d 19 5b 83 3d 56 25 84 be ae ff 18 3c
       0.06333412 0.0641386 -0.25809735 0.009338303
0003a0 4b 44 51 3e 80 df 09 be ee 9d 58 3e 40 6a 7e be
       0.20436208 -0.13464165 0.21153995 -0.24845219
0003b0 83 0d 10 be 8f 22 09 3e 9c b9 86 be 7a 16 3e be
       -0.14067654 0.1339209 -0.26313484 -0.18563262
0003c0 78 dc 7f bd 7a e9 19 3d 74 48 46 bd b3 c7 60 3e
       -0.062466115 0.037576176 -0.04840894 0.21951179
0003d0 b4 22 8b 3d 1e 96 6f be 42 46 13 3d b2 b1 25 3e
       0.067937285 -0.23397109 0.035955675 0.16181067
0003e0 6d 13 12 be 06 c2 76 be f2 c1 6d 3e 08 b2 3c be
       -0.14265223 -0.24097452 0.23218516 -0.18427289
0003f0 bf 08 74 bd be dc 24 be e6 2a e2 bc db ff b9 bd
       -0.059578653 -0.16099831 -0.027608346 -0.09082004

fc3.bias f4 [25]
000000 02 ce 06 bd 3f 0b 3a bc 66 9b f9 bc 4b 7d 31 bd
       -0.032911308 -0.01135522 -0.030469608 -0.04333238
000010 cf 92 26 bd 0a c1 83 3a c8 dc 67 3c d6 cd da bc
       -0.04066735 0.0010052037 0.014151759 -0.026709478
000020 df 3e 8e 3c d7 01 2c bd d6 40 27 bd a7 39 ff bb
       0.017363964 -0.041993942 -0.040833317 -0.007788855
000030 ff 94 0f 3b 60 09 b6 bc 1d 02 27 3a f4 82 d8 bc
       0.0021908877 -0.022221267 0.00063708593 -0.02642963
000040 ca cf 05 bd c7 ff 29 bd a4 ee 0d bd 84 67 9e bc
       -0.032668866 -0.041503694 -0.034651414 -0.01933647
000050 b2 34 10 bd 26 f4 ef bc d4 f4 7f bb fb fd 37 bd
       -0.035206504 -0.029291224 -0.003905584 -0.04491995
000060 0a c1 08 bd
       -0.03338722

fc4.weight f4 [3, 25]
000000 a7 31 23 bd 0a 3e b6 be 58 c9 38 be 8e bd 95 3d
       -0.039842274 -0.35594207 -0.18045557 0.07311545
000010 e8 a6 9a 3d 28 da ef bd 2b 13 93 be 20 e9 97 be
       0.07551366 -0.11711532 -0.28725561 -0.29670048
000020 72 6d bf bd 80 67 68 3e 0f d3 d0 3e b6 57 58 3e
       -0.09347047 0.22695732 0.40786025 0.21127209
000030 43 cf 30 3e de de b7 3e 7a d2 c6 3e b7 e9 d8 3e
       0.17266564 0.35912222 0.38832456 0.4236581
000040 8b ec 6a 3e d8 84 f1 3d 1a ab 48 3e c0 8f 8e bd
       0.22941796 0.11792916 0.1959652 -0.06961012
000050 ff d9 8d be 53 38 69 be ab a5 bf 3d ca b9 ba be
       -0.2770538 -0.22775392 0.093577705 -0.3646987
000060 13 b6 9b be 6b 91 45 3e ec e4 fc 3d b8 d0 d3 3e
       -0.3041235 0.19293754 0.12348351 0.41370177
000070 fa 55 08 be fb 7c f7 3d c8 89 19 3e 4f 3b dc 3c
       -0.13314047 0.12084385 0.14993966 0.02688375
000080 16 e9 b7 3d cf 06 d7 3e 33 ad 3f be 6b 0e b1 be
       0.089800045 0.41997382 -0.18718414 -0.34581313
000090 4e 82 b7 3e 00 34 a5 3d 20 3c ec bd 27 86 c5 3e
       0.35841602 0.08066559 -0.115349054 0.38578913
0000a0 eb fb 48 be f2 9d 14 bd 97 41 e2 3d 0e 7c b8 be
       -0.19627349 -0.03628344 0.110476665 -0.36032146
0000b0 c4 cd 19 be f2 d1 ab be 90 ba 35 bc f8 c0 d4 bc
       -0.150199 -0.33558613 -0.011091843 -0.02597092
0000c0 da 94 df be 6e 53 c7 3d ef 93 75 3e 47 08 41 3e
       -0.43668252 0.0973271 0.23982213 0.18850814
0000d0 b2 b4 c8 be 8b e1 71 3e 58 97 c6 3e 1c 80 39 be
       -0.3920036 0.23621194 0.3878734 -0.18115276
0000e0 56 f4 0c be 20 76 a8 3d 34 e9 9b 3e 57 8d 8f 3e
       -0.13765082 0.082256556 0.30451357 0.2803752
0000f0 dc 60 77 3e 78 ac 15 be 4a fc 48 3b c0 db e1 bd
       0.24158043 -0.14616573 0.0030667954 -0.11028242
000100 5c c7 24 bd e2 d9 a6 bd 48 2b 08 bd 82 8f 3e 3e
       -0.040229186 -0.081470266 -0.0332444 0.18609431
000110 5d 6a a4 3e fa f8 11 be e7 5e 8c 3e fa a2 cd 3d
       0.321124 -0.14255133 0.27416155 0.10040851
000120 0a 61 cc bd de 43 5e be cf c0 af 3e
       -0.09979446 -0.21705577 0.3432679

fc4.bias f4 [3]
000000 96 bf 87 bc 42 1a 41 3d d2 79 d6 bc
       -0.016570847 0.047144182 -0.026181135
