Pipeline/Models/ACTINN/ReduceComplexity.pth (torch, 409900 bytes, 8 tensors)

fc1.weight f4 [50, 2000]
00000000: 2fb5 1b3d 9736 51bd b684 7cbc 1601 4bbb
00000010: 6a7f 13bb 9614 273c 971e 79bd 2365 013c
00000020: fc61 0abd 58d6 07bc ef74 f33b 7231 0cbd
00000030: fe54 c93c 3c32 263c ae42 b23c 034f 3b3c
00000040: a2a4 a5ba 46ba e13c 2420 76bd 96c4 cf3b
00000050: 7e8e 623c e769 61bd 9899 f0bc 3e67 323d
00000060: ff31 0e3c 6fc3 f5bc cbdc c2bc f0f1 dd3c
00000070: 2c87 ca3c 97df b8bc b8f5 e03c 9818 a3bc
00000080: cb80 a03c ce74 dbbc c381 7cbc 9210 94bc
00000090: c2f4 1ebb f200 84bc 74f1 1ebd 74bd cb3c
000000a0: bfd6 373d 9c18 efbc 63c9 ccbc 82e1 143d
000000b0: b2c4 01bd c8c3 1a3d 6e35 18bd 0ba1 3a3c
000000c0: bf49 18bb d057 123d 887b 0f3d 2e37 1b3d
000000d0: a46c a8bc cc3d 46bd 9cbc 723c 1657 00bd
000000e0: 4890 d93b a368 333d ea73 0bbc e6ab 3dbd
000000f0: 38ec 40bc 2316 ee3c ee97 95bc 378c b63c
00000100: eb76 1ebd 1698 55bd d886 3b3d 3e95 22bd
00000110: aa9f 11bd 3f17 75bd 6073 d6bc d7f3 01bc
00000120: d34e 413c f449 aa3c 9868 2f3d 4ee5 f4bc
00000130: 66f4 543c f31e 373d 8bbe 45bd ca7a 80bd
00000140: 5eb5 883c 16f0 6dbd d455 27bb 6203 1dbd
00000150: 0b4e c1b9 96f6 24bd aec9 29bd 6b1f 6c3b
00000160: 768d fbbb 3077 8bbc 4a1a 153d 73af a73c
00000170: 2cc8 813c e0fd 253d 98fc 36bd 5ab9 093d
00000180: be15 68ba b70c 1dbc 9f88 57bd 57e2 683c
00000190: 40ba 9cbc 20d7 1b3d 52c4 243c 447f 213d
000001a0: eeab 0e3c c8ba 6abc 9ed9 fd3c e4a6 883c
000001b0: de77 c0bc f06d 5cbd 3799 b83b 0b76 4f3c
000001c0: 07e4 473d f7f3 243c 286e 0f3d 478d 83bc
000001d0: 67a6 95bc 4e14 10bd f892 39bb 5601 63bc
000001e0: 7fbb d13c 7fe0 28bd afbd cd3c 6f9a 1a3d
000001f0: bc62 d83c 104b 10bd fbe9 f2bc 3824 e73c
00000200: 7ca7 7bbd c6ee e13c 47e5 10bd a688 debb
00000210: abee 4cbd b630 d4bb bf52 0e3d e8ed f83c
00000220: 5bda 393d 5846 243c acca 963b 02bd 84b9
00000230: 5a20 82bb 56bc 8d3b 6653 91bc fbf7 fd3c
00000240: 7be0 73bc 342f 82bd 4388 f03b 4f70 193d
00000250: f27e 9b3c defa 0a3c 24ac 5e3b 277b 62bd
00000260: 2c37 ad3c bb3c bb3c 300e e33c cec8 19bd
00000270: 4b7d 2e3d cb03 40bd 0aef 0fba 7ca6 48bd
00000280: b344 5ebc ca22 a4bc 58aa 48bd 4b69 e3bc
00000290: df81 efbc e423 ebbc 5b9c f03c 4b42 593c
000002a0: 0632 fd3b 4edb 69bc 9872 2fbd 3bcd 16bd
000002b0: 6be9 91bb 2754 bb3b c879 93bc 93ad 9bbc
000002c0: 9490 40bd a72a 813c 130d 2c3d 3ef2 8ebc
000002d0: 7fa5 303d 6bc8 9c3c 4242 a23b 2870 9fbc
000002e0: 62b6 883c 4c28 01bc 94a3 54bd df48 2abd
000002f0: 5059 453c 8e94 dd3c d334 3bbc 3078 09ba
00000300: 9bc9 88bc 00ab 433b 54a9 033d cbfc 40bd
00000310: 006d 8d3b a388 31bc bba0 443d bfa7 b9bc
00000320: 0047 00bd 9e5a 0c3d bffe 203d 1c9a 2e3d
00000330: 5b92 68bd eea7 f23c 7402 11bd 5464 eabc
00000340: 2fee 2cbd 23f9 69bd 9a10 173d c303 99bc
00000350: aab6 0a3d 07bc 08bc 4fcd 503c 3264 033c
00000360: 9372 bd3c 53e9 e5bb a456 d3bc 2e0c 85bc
00000370: 544d 0fbd 96c1 12bd 5814 d7bc 6aa0 0f3d
00000380: fc97 32bd d4de f4bc a091 1c3d 6377 4dbd
00000390: 82dc 273d a29d 01bd 083a 50bc 7046 6abd
000003a0: db6b ce3c 1077 05bd 3312 333d e6df 50bd
000003b0: e89d 673c 64fa e73c eb63 68bd f323 393d
000003c0: 4f4b fa3c b381 62bd 1c7b 973c 330f aebb
000003d0: 3b5b dbbc df01 37bc f005 88bc 5ef6 48bd
000003e0: 549d d9bb 889e 5abd 44a9 28bd a6bc c63c
000003f0: 172e d63b 430d 54bd 4b6e 54bd 2c2e 59bd
0.038014587 -0.05107745 -0.0154125 -0.003097599 -0.0022506365 0.010197779 -0.06082019 0.007897648
-0.03378485 -0.00829085 0.007429711 -0.034226842 0.02457666 0.010143813 0.021760311 0.011432412
-0.0012637565 0.027554642 -0.060089245 0.0063405735 0.013827918 -0.055032637 -0.029370114 0.04355549
0.008678912 -0.030000417 -0.023786923 0.027092904 0.024722658 -0.022567553 0.027460918 -0.019909188
0.019592663 -0.026789095 -0.015411797 -0.018074308 -0.0024254774 -0.016113732 -0.038804486 0.024870612
0.044882532 -0.02918654 -0.024998372 0.036347874 -0.031681724 0.037784368 -0.03716033 0.011390935
-0.0023237315 0.035728276 0.035029918 0.03789442 -0.020559616 -0.048398778 0.014815476 -0.03133305
0.006639514 0.04380096 -0.008511523 -0.046306513 -0.011775069 0.02906329 -0.018260922 0.022283657
-0.038687628 -0.052146994 0.045782894 -0.03969311 -0.03555266 -0.059836622 -0.026178062 -0.007931671
0.011798578 0.020787217 0.042824358 -0.029894497 0.012997722 0.04470725 -0.04827742 -0.0627342
0.016688045 -0.058090292 -0.0025533335 -0.038333304 -0.00036869975 -0.040274225 -0.041452102 0.0036029469
-0.0076767756 -0.017024606 0.036402024 0.020469403 0.01584252 0.040525317 -0.044674486 0.03362403
-0.00088533375 -0.009585551 -0.052620526 0.01421412 -0.01913178 0.038046956 0.010056572 0.03942801
0.008707983 -0.014326759 0.030987557 0.016681142 -0.023494657 -0.053815782 0.005633499 0.012662421
0.04880145 0.010067931 0.035017163 -0.016058577 -0.018267823 -0.035175614 -0.002831636 -0.013855299
0.0256021 -0.04122972 0.025114862 0.037744936 0.026414268 -0.035227835 -0.029652586 0.028215513
-0.061439022 0.027579676 -0.035374906 -0.006791192 -0.0500323 -0.0064755334 0.03474688 0.03038688
0.045374256 0.010026537 0.004601797 -0.00025317824 -0.0039711418 0.00432543 -0.017739963 0.031002035
-0.014885063 -0.063566595 0.0073404624 0.03746062 0.01898143 0.008482663 0.0033977116 -0.05529323
0.021144472 0.022856107 0.027716726 -0.037545018 0.042599957 -0.046878617 -0.00054906367 -0.048986897
-0.013566184 -0.02003612 -0.048990577 -0.027760169 -0.029236732 -0.028703637 0.029371431 0.013260434
0.0077269105 -0.014273478 -0.042833894 -0.036816817 -0.0044528744 0.005716819 -0.018002406 -0.019003665
-0.04701288 0.015767409 0.042004656 -0.017449494 0.04312658 0.019138535 0.004951746 -0.01946266
0.01668853 -0.007883143 -0.051913813 -0.0415734 0.01204522 0.027048375 -0.0114261685 -0.00052440446
-0.016697695 0.0029856563 0.032143906 -0.047116082 0.0043159723 -0.010835799 0.048004847 -0.022662995
-0.03131771 0.034266107 0.039305445 0.04262744 -0.0567802 0.02962109 -0.03540273 -0.028612293
-0.042219337 -0.05712236 0.036881067 -0.018678552 0.03386561 -0.00834561 0.012744262 0.008019494
0.023125922 -0.00701634 -0.02579815 -0.01624116 -0.034985855 -0.03582915 -0.026254818 0.035065092
-0.043601975 -0.029891409 0.038224816 -0.050162684 0.040981777 -0.03164447 -0.012709148 -0.05719608
0.025197914 -0.03258425 0.043718528 -0.050994776 0.014136769 0.028317638 -0.056735914 0.0452003
0.030553488 -0.055299472 0.01849132 -0.0053118705 -0.0267769 -0.01116988 -0.016604394 -0.04906308
-0.0066410694 -0.053373843 -0.04117705 0.024259876 0.006536256 -0.05177046 -0.051862996 -0.05302255

fc1.bias f4 [50]
00000000: 6c46 cdbb 98a1 dcbc 0ef5 27bc 6847 e8bb
00000010: 9fa6 6bbb b852 31bc d8d5 5bbc 8ce0 30bb
00000020: bbdb b7bb 7a66 03bc baac 2ebc b504 a5bb
00000030: a68b 23bc c8f3 acbc 86ba f23b 802d eabb
00000040: 7c6c 84bb 70ba 45bb de9f 82bc b370 acbb
00000050: 7f10 67bb 0c67 94bc 1622 09bb d7df 46bc
00000060: 7f2f d6bb 0b5c 61bc e69b e2bc 7461 f3bb
00000070: 2fac 12bc 9688 61bc 8792 3ebb d3d6 aabb
00000080: e465 23bb c317 e0bb d228 86bb bfbb 8abb
00000090: 40c8 90bb d64e 74b8 1019 b4bb 0000 0000
000000a0: c161 823b 3e7f e7bb 4bfc dfbb 63ec 63bb
000000b0: 4771 4abc 6837 6fbc 720b 0dbc 3f37 08bc
000000c0: 9065 59bb d268 8bbc
-0.0062644985 -0.026932523 -0.010251297 -0.0070885904 -0.0035957468 -0.010822944 -0.013417684 -0.002698931
-0.0056109107 -0.008020038 -0.010661298 -0.0050359615 -0.009982025 -0.021112338 0.007407489 -0.0071465373
-0.0040412527 -0.003017094 -0.015945371 -0.005262458 -0.0035257635 -0.018115543 -0.0020924858 -0.0121383285
-0.0065364237 -0.013754855 -0.027662229 -0.007427389 -0.008952185 -0.013765475 -0.0029079036 -0.0052135973
-0.0024932558 -0.00683877 -0.0040942216 -0.004233807 -0.004418403 -5.8247555e-05 -0.0054961517 0.0
0.0039789383 -0.007064729 -0.0068354956 -0.0034778349 -0.012356109 -0.014600612 -0.008608686 -0.008313953
-0.0033172108 -0.017017756

fc2.weight f4 [25, 50]
00000000: 6ce3 31be 667f 773e e766 393e e0fd d13d
00000010: 0ee2 7c3e 838d 403e c620 62bd 1628 64be
00000020: f882 97bd dc1f 193e 50e9 6dbc c4d1 4d3c
00000030: 87ee 86be 2f81 51be c0e1 2b3e aa0a 013e
00000040: 8d2e 893e d6b6 0dbd 30f4 5ebe fe09 46be
00000050: 9e64 813e 640f 003d 4025 73be 0852 5dbe
00000060: cfff 8e3c 6f53 943d 6226 133d aa24 9fbc
00000070: 06b1 783d 9322 33be 3782 0abe 8bd1 f43c
00000080: c35e 7fbe 320d 8a3d 718a 90be 1075 70be
00000090: 3ad1 173d 58b8 8c3d a03c 39bc 36e5 723e
000000a0: a891 dd3b 2eca 44be 7394 1f3e e0c5 7ebe
000000b0: 4c03 813e 6723 6dbe 938f 2e3e d78e 17bd
000000c0: fb83 4fbe 9751 083e 3bb2 3a3c 64cb 163e
000000d0: ab36 30be 53b7 87be b1f6 84be 4630 573e
000000e0: 7b49 4abe ab56 883e 29e8 993c cc55 003e
000000f0: e0e7 42be 636b b0bd eb61 45bd 8a95 c23a
00000100: 63d1 653e 238f c53d e367 7cbe 927a 323e
00000110: f75c 59bc 5309 6fbe 1f2c 53be 2a20 95bd
00000120: f01c 75be 5fc2 2ebe 13f7 51be f8b2 ed3d
00000130: 360e e3bd f8f7 4cbe d03e 30be 4398 f83d
00000140: 70cb 7f3d ee23 80be 600b 003e ec43 d5bd
00000150: 67ce 2c3d 2e5a 1a3d 0029 edbd 07d0 69be
00000160: 7379 63be 5289 8a3e cfe0 81be c604 d93d
00000170: 3426 0c3d 0f9a 7c3e 5675 0b3e 9e38 d0bd
00000180: 203a 153d c0d9 b0bd 9675 3d3e 5866 69be
00000190: 877a 713e 83f5 cbbc 4839 f23d bf40 05be
000001a0: f4a9 08be 870f d0bc 2442 39be 2438 2e3e
000001b0: 548f 85bd 5faa 3b3e 2ece 70bd bece e8bc
000001c0: 5bbe 8abe 161e 26bd c350 343d e389 c03d
000001d0: aad2 05be 42f9 243e bbc0 29bd 935d 263e
000001e0: b850 4fbe 01e8 0f3d d3ef d5ba b675 a3bd
000001f0: de81 4f3e fc01 6abd cb0c 6bbe 58a4 4c3e
00000200: a69c 853e 2824 65be 2607 3abe 2e42 893e
00000210: f2ea 213e 0cb2 2a3c a2b4 093c b868 43bd
00000220: f609 203e 8c76 69be da94 153e 563c 4d3e
00000230: b0a9 2bbe 4902 803e 13f1 133d 3ade 1f3e
00000240: 8bdb 8bbe ba1e 1d3e 7e24 e13d f84c 35ba
00000250: e834 29bd 3a97 1cbe bf77 4f3e 80e4 30be
00000260: f066 513d e2b3 82be 2323 f0bd 13ac 663d
00000270: 0eb3 8bbe 0b53 5abe f258 75be 8cb5 8dbd
00000280: 6683 873e 9626 73bd c33b 243e efa3 e6bd
00000290: b7da 093e 18ff 4ebe a0cc 943c a060 b03c
000002a0: 038c 73be 13dd 54be 536f e43d 13ec 783e
000002b0: f286 1a3e 8f98 593d 4330 4b3d 1657 863e
000002c0: 5cdd 0cbe 433b 49bd 70b6 cebc 43d2 473d
000002d0: 06c6 3dbd e2ec a03b f4ac 13be 9cb6 22bc
000002e0: ac0e e73d 88dd 5bbe 9039 85be e604 593e
000002f0: 86f0 463e 4800 b03d 6c27 06be 2231 563e
00000300: aec2 3f3e 7ca6 82ba 5fc1 84be 5b72 923d
00000310: 9e13 613e f8a9 1e3e f8e1 3bbe b680 85bd
00000320: dc4d dabb f815 59be ba44 9abd 987f 763c
00000330: aada dc3d 0fcf 91bd 6019 6fbe d02e b43d
00000340: 3e1b 163e d62c 9cbd eb2e 303d 2fd2 263e
00000350: bfed bd3d 86b8 82be c702 243d 5e1b 00be
00000360: 38dc 7dbe 6887 8e3d a46e ab3d c653 13be
00000370: 3b38 603d e681 fc3c f329 84bd 98cc 303e
00000380: f247 28be 8cac 32be e6d2 57be c4c2 9b3d
00000390: 5388 35be 0c7c 083e c617 813e 1a6c 83be
000003a0: cb89 c03d e093 3bbd b892 8e3e a2fe 41be
000003b0: 2817 2dbe f546 8fbe e47b 8f3e d0bb a03c
000003c0: 0090 8c3e 9c20 87be 07a4 65bd 9b4e 3a3e
000003d0: 084c a6bd ac85 163d 88dd 223e 374e d4bd
000003e0: e7ff 97bc 68ab 893e 7b24 0f3e 486c 58be
000003f0: 0713 e5bc 9bc9 93be 9442 213e 7215 8f3c
-0.17371911 0.24169692 0.1810566 0.10253501 0.24695608 0.18803982 -0.055207036 -0.22280917
-0.07398027 0.1495356 -0.014520958 0.012562219 -0.26353857 -0.20459436 0.16785336 0.12601724
0.26793328 -0.034598194 -0.21772838 -0.19339749 0.25272077 0.031264678 -0.23744678 -0.21613324
0.017455963 0.07242476 0.035925277 -0.019426662 0.060715698 -0.17493658 -0.13526236 0.029885074
-0.24938492 0.06740798 -0.28230622 -0.23482156 0.03706477 0.06871098 -0.011305958 0.2372025
0.0067617483 -0.1921775 0.15583973 -0.24880171 0.25197828 -0.23158036 0.17046957 -0.037001457
-0.2026519 0.13312374 0.0113950325 0.14726025 -0.17208354 -0.26507053 -0.2596946 0.21014509
-0.19754593 0.26628622 0.01878746 0.12532729 -0.19033766 -0.086142324 -0.048189085 0.0014845592
0.22443156 0.09646442 -0.24649005 0.1742957 -0.013266793 -0.233434 -0.206223 -0.072815254
-0.2393682 -0.17066334 -0.20504408 0.11606401 -0.11086695 -0.20016468 -0.17211461 0.121384166
0.062449872 -0.25027412 0.12504339 -0.10413346 0.042189028 0.03768366 -0.11580086 -0.22833262
-0.22214298 0.27057892 -0.25366828 0.105966136 0.03421612 0.24668144 0.13618979 -0.10167049
0.036432385 -0.086352825 0.18501887 -0.22792947 0.23581897 -0.024897343 0.11827332 -0.1301298
-0.13346082 -0.025398029 -0.18091637 0.17013603 -0.06521478 0.1832671 -0.05879038 -0.028418895
-0.27098355 -0.040556036 0.044022333 0.094013 -0.13068643 0.1611071 -0.041443568 0.16246633
-0.20245636 0.035133366 -0.0016322084 -0.07981436 0.20264384 -0.0571308 -0.22954099 0.19984567
0.26096076 -0.22377074 -0.1816679 0.26808304 0.15812281 0.010418426 0.008404883 -0.04770729
0.156288 -0.22799128 0.14607564 0.20042548 -0.1676395 0.25001743 0.03611858 0.15612116
-0.27315935 0.15343753 0.109932885 -0.0006916071 -0.04131022 -0.15292063 0.20260523 -0.17274666
0.05112356 -0.25527865 -0.11725452 0.056316447 -0.27285045 -0.21320741 -0.23959711 -0.06919393
0.26467437 -0.05936297 0.16038422 -0.112617366 0.1346234 -0.20214498 0.018163979 0.02153045
-0.23783879 -0.20787458 0.11154046 0.24308805 0.1509054 0.053124007 0.049606573 0.26238316
-0.13756317 -0.049128782 -0.025233477 0.048784506 -0.046331428 0.004911051 -0.14421445 -0.009931233
0.11282095 -0.21471226 -0.2602048 0.21193275 0.1942769 0.08593804 -0.13100976 0.2091718
0.18726608 -0.0009967829 -0.2592878 0.07150718 0.2198014 0.15494525 -0.18347919 -0.0651869
-0.0066621136 -0.21199787 -0.0753264 0.015045069 0.10783894 -0.071195714 -0.23349524 0.08797991
0.1465883 -0.07625739 0.043013494 0.16291116 0.09273862 -0.25531405 0.04004171 -0.1251044
-0.24791038 0.069594204 0.083707124 -0.14387426 0.054741126 0.03082366 -0.06453314 0.17265546
-0.16433695 -0.17448634 -0.21076545 0.07605508 -0.17727785 0.1332857 0.2521345 -0.25668412
0.09401282 -0.04579532 0.27846313 -0.18944791 -0.16903365 -0.27983823 0.2802421 0.019620806
0.27453613 -0.26392066 -0.05606463 0.18194048 -0.081199706 0.036748573 0.1590482 -0.10366481
-0.018554641 0.26888585 0.1397876 -0.21135056 -0.027963175 -0.2886475 0.15748054 0.01746628

fc2.bias f4 [25]
00000000: 0083 2738 1b3a ebbb 84cc b4bc 9792 acbc
00000010: ce68 ccbc d0a7 98bb 27f9 b2bc 04c1 2dbc
00000020: 8846 3ebc 6afc 94ba 58e1 a43c d2d8 cabc
00000030: 22a4 f7bc 63d0 8bbc 8ee5 d0bc bd85 90ba
00000040: 7f5f e8bc f3bc 02bd 2f5a c0bc 5268 1abd
00000050: a216 3bbb 5475 9ebc b2da ab3c 7a35 3bbc
00000060: 23bb b7bc
3.9937906e-05 -0.0071785576 -0.022070177 -0.021065993 -0.024952319 -0.0046586767 -0.02184732 -0.010605101
-0.011613496 -0.0011366729 0.020126984 -0.024761591 -0.030229632 -0.01706714 -0.025500085 -0.0011026185
-0.028365849 -0.031918477 -0.023480503 -0.037697144 -0.0028547426 -0.019343056 0.020978305 -0.011426324
-0.0224281

fc3.weight f4 [12, 25]
00000000: 1c42 98be 0842 b7be 2cae aabd 0e74 b1be
00000010: 76b0 d2be b31c 6b3d 73ff 753e ccf6 b13e
00000020: 3ebd cbbd db31 4abe b6ad 0a3e b0cc 923d
00000030: f3a2 85be 52e5 59be 5321 753e 7a34 273e
00000040: 0f05 d1be 4356 c03e a342 0cbd 3c2e 103e
00000050: 7023 0ebe d3b7 88be 84cd f8bc e7f5 92be
00000060: c23f f8bd 9634 e63c 963d 173e 8361 c3be
00000070: 9ae3 d43a 0b6b be3e 8390 ccbe 0f39 2fbc
00000080: 2f8c b5be 4c7b a3be c32e babe fe6a 36be
00000090: 360a 68be 1e44 aa3e 14b2 ba3e cfed 9dbe
000000a0: c2f7 823e 1337 cdbe 0e50 b33e a047 56be
000000b0: 98f7 143e ab73 ebbd fbd5 c33a 7053 a5be
000000c0: 6e14 453d 9840 a93e 0634 d03e acda 2ebe
000000d0: b0a8 8c3e 77b6 c73e d4bb 73be a6ed 28be
000000e0: 7777 8fbe 6044 293d ab86 d93c fe5a 8a3d
000000f0: 6cb3 813e e8bc b73e e67f 083e 9bce 8d3e
00000100: a8aa 9c3e c01a b1be 7ad7 1dbe 3e88 7f3e
00000110: b308 6fbe d9cd 0ebe 3ff7 83be 3fde b1be
00000120: 24de 8abd 66cf c6bd cb79 ac3c f2a8 29be
00000130: bef4 203e fa39 a83e b8b9 b63e b844 ac3c
00000140: aa7c 83be b233 a3be 1c52 40be 9c0a abbe
00000150: 17c3 96be 8b2a 49be 779f 9c3e e8ee 533e
00000160: 9fa1 ce3d 2782 7fbe 1b8c 6dbd 802a 9cbe
00000170: 5b1a 56be 475a 003d 9bc9 3e3d 323f 28be
00000180: ce8d 7b3e ffb0 71bd eaa5 48be 73bb 4ebe
00000190: 8b19 6d3e 387e 003e 4828 9dbe a2f8 ea3c
000001a0: 2322 b2be f82c eebd ee32 8dbe 5c2d c6bb
000001b0: f369 e7bd 6fa0 a2bd c2d7 1bbe decc 8b3e
000001c0: f8d4 263e 2045 b5be bbfb 323e 1275 eebd
000001d0: dbb4 1b3e 67b6 aabc 4329 babe 2070 8abe
000001e0: 34be 923d 3a58 a43e 2366 8b3e 3a56 11bd
000001f0: e407 673e 3fe0 c2be d0e5 b43d 0e9b 82be
00000200: 7205 873e 2b56 6d3d 0e16 70be d79c 85be
00000210: ae96 8cbe 12dd c03d 1cbe adbe 6391 453e
00000220: f725 8abe e464 973e 9a6d 5fbe 43a5 5cbe
00000230: 922c ad3d f827 8bbe df7a 993e 82fe 87be
00000240: 5094 c4be fa74 a93e 8794 b5be 2bfd bfbc
00000250: 47fb 0fbe 1461 dc3c 1f94 463e d693 323e
00000260: 23ff bebe 4c8c b33e e2dd 1a3e 7e61 a33d
00000270: c24b 7ebd 5629 fcbd 93b9 d0bc 2a72 c5be
00000280: 5c51 7dbe 0607 3ebe e324 fb3c c0e3 103e
00000290: 7bda a53e 7a9d 7dbe bee4 1fbb 734f a0be
000002a0: 8f30 65be f39d 1c3e e760 e33d 9c3b 9c3e
000002b0: d0b0 ea3d 0a27 803e 8bfb 733c 9319 103e
000002c0: b258 a03e 0b4b 8abe f40b 6ebe 2e25 823d
000002d0: 7a06 cd3e 935b 063e 8c0e c83e d03d 03bb
000002e0: d66a 69be 729c b8bd 6ee7 91be 4eb8 20be
000002f0: 4c78 a93e 1777 b7bd 8672 bbbd 4fe1 a0be
00000300: 5240 bdbe 842b 29be acda 9b3e e45a 243e
00000310: 036e 4fbe c2a4 9cbe b75b 0dbd f203 94be
00000320: ebed 78be f0dc 01bd 4045 eabc fe3a 8a3e
00000330: 6acb a53e 96fa 363e 283a a3be 1626 4abe
00000340: b0c8 c03d 4bff b9be 778b 36be 67ec 103e
00000350: 3e65 b73d a8d3 92bc a6c8 abbd 4601 a13d
00000360: 40f5 823d dc78 9b3d aa91 a53e 4b09 0e3e
00000370: 9883 973c 060c c4be 349b 753e 0b16 003d
00000380: 06dc 9abe d44e d1bd 2700 9fbd 90cb 663e
00000390: 7d2f 9d3e dfe7 493e 7ac2 a8be b874 d3be
000003a0: 6469 35be 5c98 e03d 14fa 023e 2e4b a43e
000003b0: 0359 e13d 6715 f9bd 713f a0be 0ff1 01be
000003c0: 4e3b ab3e 1c6c 8b3e c2db 463e fefa bd3e
000003d0: 53fb 593e 0c42 a0be d972 8f3e 24a6 06be
000003e0: 7696 903c 9a1e 923e 7011 8c3e 60a1 85be
000003f0: 53e3 543e aaeb 99bd e222 413e 2afc 55be
-0.29737937 -0.35792565 -0.08334002 -0.34658855 -0.41150254 0.057400417 0.24023227 0.34758604
-0.099482045 -0.19745581 0.13542828 0.07167947 -0.26100883 -0.21278885 0.23938493 0.16328612
-0.40824172 0.37565812 -0.034243237 0.14080137 -0.13880706 -0.26702747 -0.030371435 -0.28703234
-0.12121536 0.028101247 0.14769587 -0.38160333 0.0016242147 0.37191042 -0.39954004 -0.010694756
-0.35458514 -0.31930006 -0.363638 -0.17814252 -0.22660145 0.33255094 0.36463988 -0.30845496
0.2557965 -0.4008108 0.35022014 -0.2092576 0.14547575 -0.11496671 0.001494109 -0.3229022
0.048115186 0.33057094 0.4066469 -0.17075604 0.27472448 0.39006397 -0.2380212 -0.16496906
-0.28020832 0.041324973 0.026553473 0.06755637 0.253322 0.35886312 0.1333004 0.2769669
0.3059895 -0.3459072 -0.15414229 0.24954316 -0.23343162 -0.13945712 -0.2577457 -0.34739873
-0.06780651 -0.09707527 0.02105417 -0.16568354 0.15718362 0.32856733 0.35688567 0.021028861
-0.2568105 -0.31875378 -0.18781322 -0.33406532 -0.29445717 -0.19645135 0.30590412 0.20696604
0.100894205 -0.24951993 -0.057994943 -0.30501175 -0.20908491 0.031336095 0.046578985 -0.16430357
0.24565813 -0.059006687 -0.19594541 -0.20188694 0.23154275 0.12548149 -0.30694795 0.02868301
-0.3479167 -0.11629671 -0.2757792 -0.0060478877 -0.11299505 -0.079407565 -0.15219024 0.2730474
0.16292179 -0.354043 0.1747884 -0.11643423 0.1520571 -0.02083893 -0.36359605 -0.2703867
0.071651846 0.32098562 0.27226362 -0.035482623 0.22561604 -0.3806171 0.08832896 -0.25508922
0.26371342 0.057943504 -0.23445913 -0.26096222 -0.2745871 0.09417166 -0.33934104 0.19293742
-0.2698209 0.2956916 -0.21819153 -0.21547417 0.08455767 -0.2717893 0.29976556 -0.26561362
-0.38394403 0.3309706 -0.3546488 -0.02343615 -0.14060698 0.02690176 0.19392441 0.17439207
-0.3730403 0.35067976 0.15123704 0.079775795 -0.062083967 -0.12312572 -0.025479114 -0.38563663
-0.24738067 -0.18557367 0.030657237 0.1414938 0.3239325 -0.24767104 -0.0024397816 -0.31310615
-0.22381805 0.15294628 0.11102467 0.30514228 0.114595056 0.25029784 0.0148915155 0.14072256
0.3131767 -0.27010378 -0.23246747 0.06354748 0.40044004 0.1312087 0.39073598 -0.0020025857
-0.22794661 -0.090142146 -0.2849688 -0.15695307 0.33099592 -0.089582615 -0.09152703 -0.31421897
-0.36963135 -0.16520506 0.3044027 0.16050297 -0.2025681 -0.3059445 -0.034511294 -0.2890926
-0.24309509 -0.031704843 -0.028597474 0.26998132 0.32381755 0.17869028 -0.31880307 -0.19741091
0.09413278 -0.36327586 -0.17826639 0.1415268 0.08954857 -0.017923191 -0.0838788 0.07861571
0.06394434 0.075914115 0.32337695 0.13870732 0.018495366 -0.38290423 0.23984987 0.03127102
-0.3024599 -0.102201134 -0.07763701 0.2253859 0.30700293 0.19717358 -0.32960874 -0.41299987
-0.17715985 0.1096656 0.1279071 0.32088608 0.11003306 -0.12162285 -0.31298402 -0.12689613
0.33443683 0.27230918 0.19419768 0.37105554 0.21287279 -0.3130039 0.2801731 -0.13149315
0.01764987 0.28538972 0.27357054 -0.26099682 0.20789842 -0.075156525 0.18860963 -0.20896974

fc3.bias f4 [12]
00000000: f6df 02bd 46eb 76bc 3fc7 e93c 135e a6bc
00000010: c34f fabc 65d2 0abd 3b1e 19bd bb43 6cbc
00000020: 1c59 a33c faff 6ebd 341a 123d 56dd ffbc
-0.031951867 -0.015070742 0.02853739 -0.02030853 -0.030555611 -0.033892054 -0.037382346 -0.014420445
0.019939952 -0.058349587 0.03566952 -0.03123347

fc4.weight f4 [3, 12]
00000000: 7698 cd3e efbf b23e 104a c43c 3f6d f5be
00000010: 6018 aebd 4683 5bbe c3fd f83e 40e5 24be
00000020: 429b 1cbf 6027 0fbf 1fcb fbbe 5b8f 593e
00000030: 58e5 49bd ff23 0cbf 07af ee3e 3856 ec3e
00000040: 803a fcbe 432b dabe 14c8 863d 645f d3be
00000050: fdc0 9c3e fcc7 b5be d301 723e 44c2 0ebf
00000060: ae26 093f 4f93 d0be 2215 bc3e fff2 e83e
00000070: 8fd3 55be 28e7 bd3e b0f4 093f 3c26 aebe
00000080: bedf 02bf 74ca 01bd f41f 0cbe 46f2 9ebe
0.4015538 0.3491206 0.023961097 -0.4793491 -0.08500743 -0.21436796 0.48631105 -0.16103077
-0.61174405 -0.55919456 -0.49178407 0.21246092 -0.049290985 -0.54742426 0.4661791 0.4615953
-0.49263382 -0.4261113 0.065811306 -0.41283715 0.30615988 -0.35504138 0.23633508 -0.55765176
0.53574646 -0.40737388 0.36734873 0.4549789 -0.20881484 0.3709042 0.5388899 -0.34013546
-0.51122653 -0.031687215 -0.13684064 -0.31044215

fc4.bias f4 [3]
00000000: f6e6 f6bc bba6 423d e2d9 a5bc
-0.030139428 0.047522288 -0.020245496
