Pipeline/Models/ACTINN/SmallBatch.pth (torch, 829156 bytes, 8 tensors)

fc1.weight f4 [100, 2000]
000000 52 23 a0 bc f0 00 11 3c 07 b6 23 3d 03 f1 b3 3c
       -0.019548092 0.008850321 0.039968517 0.02196551
000010 98 ab 0a bc 56 f9 c2 3c 8e c9 35 3d 06 de c8 3c
       -0.008463763 0.023800533 0.04438167 0.024519932
000020 2a f1 99 3c 96 de 99 3c 18 35 5f bc fb 9a 57 3d
       0.018791754 0.018782895 -0.013623498 0.052638035
000030 a4 2c 38 3c 93 0e d3 3c 13 c6 d1 bc 2a f6 82 3c
       0.011241112 0.025763785 -0.025607144 0.01598652
000040 d8 c6 43 bd 2b b7 b8 3c 9e be 84 bc 34 a4 0f bc
       -0.047797054 0.022548279 -0.016204175 -0.008767176
000050 ee c2 43 3d f8 40 db 3b ea 42 86 3c 26 1c 53 bd
       0.04779332 0.0066910945 0.016389329 -0.051540516
000060 52 ff 0b 3d e8 63 e3 3b 46 28 ef 3c 00 05 4c bd
       0.03417904 0.0069394 0.029194009 -0.049809456
000070 d6 f5 1c bd 5b fe 40 bd 58 99 8f bb 50 6e b5 bb
       -0.038320385 -0.047117572 -0.0043822937 -0.005536832
000080 76 fb 47 bd 93 14 f0 3c 06 92 b1 3c 26 95 8f bc
       -0.048823796 0.029306686 0.021676075 -0.017527174
000090 0c 32 59 bc a3 cc 56 bd 06 ce 2a bd 98 9f 6d bc
       -0.013256561 -0.05244125 -0.041700386 -0.014503382
0000a0 33 90 26 3d c0 1a e8 3a 18 02 3e bd 4e 33 fb 3c
       0.040664863 0.0017708167 -0.046388716 0.030664112
0000b0 66 51 10 bd 1e d7 c6 3c 66 96 ff 3c f3 5c 90 3c
       -0.035233878 0.024272498 0.031199645 0.017622447
0000c0 86 8a fd 3c b6 5e 16 bd c6 3f 27 3c 16 c5 58 3d
       0.030949842 -0.036711417 0.010208076 0.05292233
0000d0 b3 6d 33 bd 94 c4 1d bd 8b 6d f9 bc 66 06 25 bd
       -0.04380579 -0.03851755 -0.030447742 -0.040289305
0000e0 93 c5 37 3d b0 b7 14 bd da 7e 9f 3c 88 7a 95 bc
       0.044866156 -0.03630799 0.019469667 -0.018246904
0000f0 a4 48 62 bc 2c 7f 1a bd 04 fe 0b bc 60 2a 1d 3b
       -0.013811264 -0.037718937 -0.008544449 0.0023981556
000100 d8 27 94 bc e8 ac f8 bb 2e 08 0b 3d 5e bc f3 3c
       -0.018085405 -0.0075889714 0.033943348 0.029752906
000110 5b 3a 50 3d 66 10 91 3c 9e e1 f1 3a ce 89 b9 3c
       0.050836902 0.017708015 0.001845408 0.022648718
000120 a0 3d 32 bb 03 7a ad bc d8 9e a3 bb 50 19 5f bb
       -0.0027197376 -0.021176344 -0.004993301 -0.0034042187
000130 2e b7 de 3c 18 a7 9e bb 26 86 28 bd 42 99 1e bd
       0.027186956 -0.0048416965 -0.04114356 -0.038720377
000140 74 7b 69 3c 4e d6 49 bd 16 90 e3 bc 56 86 51 bd
       0.014250625 -0.049276643 -0.027778666 -0.051153503
000150 78 17 c7 bb 3e 29 97 3c 48 d0 ea bc a4 8b 1c 3c
       -0.0060757957 0.018452283 -0.02866377 0.009554777
000160 83 99 56 3d 3e 98 15 bd 96 ce 99 3c 2c 24 55 bd
       0.052392494 -0.036522143 0.018775266 -0.05203645
000170 1c 60 7d 3c 43 12 56 3d 5c 0b 06 bd eb 4b 17 3d
       0.015464809 0.05226351 -0.032725677 0.036937635
000180 4c 33 67 bc 5b 1c c9 3c 60 37 f9 bc 68 d3 3e 3d
       -0.014111351 0.024549654 -0.030421913 0.04658833
000190 36 6f 19 3d 60 72 9a ba 8b 18 e7 bc 73 e3 52 3d
       0.037459575 -0.0011783354 -0.028209945 0.051486444
0001a0 23 62 2f bd 33 32 0a 3d 34 24 d5 bc f6 28 9d 3c
       -0.0428182 0.03373928 -0.02601824 0.01918457
0001b0 5b c1 3d 3d d0 69 11 bd 63 ca f5 3c 72 7c 11 bd
       0.046326976 -0.0355013 0.030003732 -0.03551907
0001c0 56 25 47 3d d4 05 47 bc 00 20 6d b7 b2 c5 0a bd
       0.04861959 -0.012147386 -1.4133751e-05 -0.033879943
0001d0 24 ae 6a 3c e4 14 7d bc c3 72 0e 3d b7 fb 58 3d
       0.014323745 -0.015446875 0.034777414 0.05297443
0001e0 c4 6f 69 3c 7a 43 0e bd a8 db 40 3d 9b 12 36 3d
       0.014247838 -0.03473232 0.04708448 0.044451337
0001f0 2b b5 ab 3c c6 56 1e bd 82 16 1c bd 40 35 20 3a
       0.020960411 -0.038656972 -0.038107403 0.00061114505
000200 03 ab dc bc 30 23 cd 3c 5c 5b 57 3c df 63 08 bd
       -0.026937013 0.025041193 0.01314434 -0.03329837
000210 b8 31 8f 3b dc 8c 88 bc 63 25 32 3d a7 36 39 bd
       0.0043699406 -0.01666873 0.043492686 -0.045218136
000220 d6 12 b4 3c b8 5d 98 3b f0 e9 3b bd c0 17 6c 3b
       0.021981638 0.004649844 -0.045877397 0.0036024898
000230 e3 be aa 3c 7e 2f f3 bc 5b da e5 3c 8e 35 27 bd
       0.020842975 -0.029685732 0.028058222 -0.040822558
000240 a4 98 16 bd fe 92 e8 bc 93 84 bd bc f7 4b b5 3c
       -0.036766663 -0.028390404 -0.023134505 0.02213095
000250 c3 46 f6 bc 86 fa e8 3c 27 a5 32 3d 8c 41 7d 3c
       -0.030063039 0.028439771 0.043614533 0.015457522
000260 aa 63 9a bc 2e f0 0a 3b 80 12 5b 3a 14 ee 3d bd
       -0.018846352 0.0021200287 0.0008356944 -0.046369627
000270 77 a0 25 bd 2c 3f 06 bd 13 69 26 bd 3a e8 0f 3d
       -0.040436234 -0.03277509 -0.04062755 0.035133578
000280 4b 9a c4 bc eb 0d e0 3c 1a 7b 1d bd b6 28 32 bd
       -0.023999354 0.027350387 -0.038447477 -0.043495856
000290 9a 30 14 bd 33 5c 40 3d 2c 95 9b bc c3 aa 3c 3b
       -0.036179163 0.046962928 -0.01899203 0.0028788305
0002a0 9e e1 5a bd d8 ea c3 bb 10 13 04 bc 03 95 bd bc
       -0.05343782 -0.0059789233 -0.0080611855 -0.023142343
0002b0 ce 8e 80 3c eb 7d 28 3d ea 90 f4 bb ff f8 0f bd
       0.015693095 0.04113571 -0.007463564 -0.03514957
0002c0 54 de 8b bc 0e a7 20 3c 16 8c 98 3c 2e 33 cf bc
       -0.017073788 0.009805454 0.018621486 -0.025292959
0002d0 00 2b ce 39 ac f3 45 bd 30 a4 b3 bc 2a 64 85 3c
       0.0003932342 -0.048328087 -0.021928877 0.016283114
0002e0 53 10 0e 3d 68 94 71 bc 6c 67 23 3c b0 9d 40 bb
       0.034683537 -0.014744855 0.009973388 -0.0029390864
0002f0 13 4e 23 bd 1b 96 ce 3c 47 b5 ec bc c6 6f 58 3c
       -0.03986938 0.02521806 -0.028895034 0.013210243
000300 40 a3 2b bc cc 31 3c bd 00 65 db ba 5c 1b 49 bd
       -0.010475934 -0.045945928 -0.0016738474 -0.049098358
000310 68 e0 64 bc 40 58 b9 ba a4 db b5 bc bc d9 22 3c
       -0.013969518 -0.001414068 -0.02219946 0.009939607
000320 a7 e9 0f 3d eb 9a ae 3c 64 f6 82 bc d8 ad 2a bd
       0.035134938 0.021314105 -0.015986629 -0.041669697
000330 db 75 44 bd 50 d7 c6 bc e8 d2 55 bc fe 7f f2 bc
       -0.04796396 -0.02427259 -0.013050772 -0.029602047
000340 04 3e 4e bc 53 5b 4f bd dc f5 75 3c 2e b2 30 bd
       -0.012588028 -0.050624203 0.015012231 -0.043138675
000350 b8 1e fd bb 53 5b 1b 3d 38 17 df bb 46 98 0d bd
       -0.007724609 0.03792889 -0.006808188 -0.034569047
000360 9b 09 57 3d 97 fa 29 bc e3 4c e6 3c 4e a9 06 bd
       0.052499395 -0.010374687 0.028112834 -0.032876305
000370 4f d4 5a bd 0f 17 2a 3d 1b 7d c5 bc 80 6d 34 bc
       -0.05342513 0.041525897 -0.024107506 -0.011012435
000380 c0 da de bb 7c 2f 25 bc a6 39 39 3d c3 cb b0 bc
       -0.0068009794 -0.010082122 0.045220993 -0.021581536
000390 b4 ec 51 3c d6 89 2d 3d 6f 87 45 3d 3e 00 2b 3d
       0.012812782 0.04236778 0.048224863 0.041748278
0003a0 30 6f 43 bd 8c 70 45 bc 62 ea e5 3b f2 61 2a 3d
       -0.04771346 -0.012050759 0.007016466 0.041597314
0003b0 df 04 cd bc 48 23 2e bc 4e 9b 27 3d c6 45 99 3c
       -0.025026737 -0.010628529 0.040919594 0.018710028
0003c0 54 c9 04 bc 08 c6 de 3b 4c 12 41 bd c6 a3 03 3d
       -0.008104641 0.0067985095 -0.04713659 0.03213861
0003d0 80 b8 b6 ba c4 fc 71 3c 63 ce 2f bd b3 6e 1e bd
       -0.0013940483 0.014769737 -0.042921435 -0.03867979
0003e0 0a 33 1a 3d 78 e5 ed bb 48 a2 44 3d 5e bd 20 3d
       0.03764633 -0.007260021 0.048006326 0.039243095
0003f0 b8 1c 1e 3c de cb e5 3c 12 36 01 3d 9b 95 33 3d
       0.009650402 0.028051313 0.031545706 0.043843847

fc1.bias f4 [100]
000000 5e 35 ab 3a 00 00 00 00 51 b4 05 bc a0 62 32 3a
       0.0013062169 0.0 -0.008160667 0.00068048574
000010 50 d0 35 bc 7a ab 23 bc 37 7a c5 bb 0c 78 b5 bb
       -0.011097029 -0.009989614 -0.006026532 -0.0055379923
000020 2c e3 af bb 28 ca 5f 3b 4c 1f e8 3a 88 c2 c9 ba
       -0.005367657 0.0034147594 0.0017709523 -0.0015393058
000030 c8 0c f6 bb d8 83 d7 bb a6 0a 8e 3b 5e 4d 11 bb
       -0.007508848 -0.0065769963 0.0043347655 -0.0022171359
000040 5b 82 36 bc be d9 5c 3a a0 89 4b bb 3b 0d c2 bb
       -0.011139478 0.000842478 -0.0031057373 -0.0059219874
000050 27 eb f3 bb b0 fe 55 3c 88 04 86 bc 00 00 00 00
       -0.007443804 0.0130612105 -0.016359583 0.0
000060 b8 94 3d bc 5a e8 ae bb 3f ff 89 bc 0e e7 fd 3a
       -0.011571102 -0.005337757 -0.016845344 0.0019371228
000070 ab 95 6b bc 8f 60 24 bc 34 eb 60 3a 54 1c 7b bc
       -0.014378945 -0.010032787 0.000857997 -0.015326578
000080 a0 0e 2f bc c6 dc e5 bb 36 86 03 bb cb 38 e6 bb
       -0.010684639 -0.0070148436 -0.002006901 -0.007025813
000090 d2 f8 d2 3b 57 b6 a9 bb f8 90 1f bc 7c 1d 88 bb
       0.006438353 -0.0051792073 -0.009739153 -0.0041539054
0000a0 56 fc e0 bb 1b 8f 00 bc 44 6b 05 bc 84 cd 0c 39
       -0.0068660183 -0.007846619 -0.00814325 0.00013428001
0000b0 8f 40 3e bb 08 64 ff bb 4a e3 10 bc 4b c3 a9 bb
       -0.002903018 -0.007793907 -0.008843252 -0.0051807514
0000c0 0c f5 01 bb af 05 8a 3b 9b 92 70 bc 5e 64 5c ba
       -0.0019829897 0.0042121033 -0.014683391 -0.000840729
0000d0 b3 67 0b bc 88 b0 b4 b9 48 8e 64 bb 00 00 00 00
       -0.008508611 -0.000344638 -0.0034874845 0.0
0000e0 3f 04 9d bb 2a 03 08 bc ac 43 ca bb f3 f1 ba bb
       -0.004791766 -0.008301536 -0.006172618 -0.005705112
0000f0 f2 b8 1d bb a0 ce 0f ba 7a a1 98 ba bc ab 26 bc
       -0.0024066535 -0.00054858066 -0.0011644803 -0.010172781
000100 b2 8a 63 bc a7 cf 22 ba 48 59 bd bb e6 5d e1 ba
       -0.013888048 -0.0006210752 -0.0057784654 -0.0017194122
000110 96 2f 87 bc c0 c3 08 bc 48 ca d7 bb cb b3 d6 bb
       -0.016502183 -0.008347452 -0.006585393 -0.0065521947
000120 c8 ca e7 ba b8 b6 57 bc 0e 7f 0b 3c b8 86 25 bb
       -0.0017684335 -0.013166122 0.008514179 -0.00252573
000130 18 6e 17 bc d6 5e 84 bb 58 e1 84 bc 14 f4 47 bc
       -0.009242557 -0.0040396256 -0.016220734 -0.012204189
000140 63 47 be ba 1b 5b e0 bb b5 61 86 ba a3 79 49 bc
       -0.0014517125 -0.006846798 -0.0010252508 -0.012297067
000150 e2 b3 e7 ba bc 3f 8e bb be 99 e3 bc 16 a3 35 bc
       -0.0017677511 -0.004341094 -0.02778327 -0.011086246
000160 09 3e 9b bb 42 ae a8 bb 61 9d 95 3b 93 f7 d0 bb
       -0.00473762 -0.0051477263 0.00456588 -0.0063771694
000170 38 6d 6d bc 43 9e 40 bc 62 b9 c2 bb f2 80 b4 3b
       -0.014491372 -0.0117564825 -0.0059425095 0.0055085355
000180 00 00 00 00 8e 1f a3 bb 17 33 8d bb be 25 8f b9
       0.0 -0.004978127 -0.004309069 -0.00027303206

fc2.weight f4 [50, 100]
000000 06 eb b0 3c 2e 4d 18 be bb c9 92 3d 9a b4 6b bd
       0.021596443 -0.14873192 0.07167383 -0.057545282
000010 5e 6f 40 be c6 f2 05 3d 9b f5 3d bc 3b 37 b4 3d
       -0.18792483 0.03270223 -0.011594201 0.08799597
000020 4a 24 9c 3d df 7a 14 be fa 45 2b 3d ca 44 17 3e
       0.07624109 -0.14499997 0.04181478 0.14772335
000030 a3 2b 5a be a8 a6 f4 3d 27 3f 16 3e 56 48 9c bd
       -0.21305709 0.1194585 0.14672528 -0.076309845
000040 68 b0 30 3e ed ea 09 3e 64 e5 ac bc 83 6f 7f bd
       0.17254794 0.13468523 -0.021105476 -0.062362205
000050 7c 33 cd bc a0 1b d8 3d 0b 03 d8 3c 3e 8a ff bd
       -0.025048964 0.10552144 0.026368639 -0.124775395
000060 9e fa b2 bd c8 1f 8a bd 3f 2b 4d 3d 5a 54 21 be
       -0.08739208 -0.06744343 0.05009007 -0.15754834
000070 46 b4 6e 3d 1b 95 57 bc 88 61 d2 bd 00 a7 b1 bc
       0.05827739 -0.013158108 -0.10272509 -0.021686077
000080 b0 cf 2d be 6b 5f ad 3c 32 af c4 3d 82 22 9a bc
       -0.16973758 0.021163663 0.09603728 -0.018815283
000090 bf b0 b9 3d 57 30 a0 bc 0e 2a 18 3e a0 ee 1e be
       0.09066915 -0.0195543 0.14859793 -0.15520716
0000a0 be 35 47 3e 0e 4f 05 be 3c e9 4e bc 8e 96 99 3d
       0.19454095 -0.13018438 -0.01262885 0.07499419
0000b0 17 19 01 be 7a af 03 3e 5f 35 a9 3c d8 6e 84 bd
       -0.12607227 0.12859908 0.020655332 -0.06466454
0000c0 00 6e 07 3e 3e 31 2d bd 86 ef 4d be d2 f4 f9 bd
       0.13225555 -0.04228329 -0.20110902 -0.12204899
0000d0 f6 1a 13 3d c0 74 32 3e 53 54 c4 3d 80 30 6d bc
       0.035914384 0.17427349 0.09586396 -0.014476895
0000e0 76 22 e4 bc 04 a9 fe 3d 83 16 48 be 2f ad f0 bd
       -0.027848464 0.12434581 -0.19539838 -0.11751782
0000f0 a8 3d 36 be 87 cb d4 3d 07 8b 38 be a8 b8 1e be
       -0.17796957 0.10390382 -0.18021785 -0.15500128
000100 a0 33 4e be 13 ba c8 3d 9e 5a 19 be e7 ea e3 bd
       -0.20136881 0.09801116 -0.14975974 -0.111287884
000110 df 91 06 3e 8b 9c 34 be a6 4d 36 3c 6a 32 15 3e
       0.13141583 -0.17637841 0.011126911 0.14570013
000120 73 11 04 3e 20 94 00 3e 4b 13 b7 3d 06 91 03 be
       0.12897281 0.12556505 0.08939227 -0.12848291
000130 ae 67 48 bd 6e ab 6b ba da 6b 9e bd 10 20 9e 3d
       -0.048927 -0.00089900836 -0.07735415 0.07720959
000140 60 5e bc 3d f7 bb 7d bd d6 21 5f bc ca 22 4a bd
       0.09197688 -0.061946835 -0.013618907 -0.049349584
000150 6e 40 27 3d d3 aa ec bc c4 a1 17 bd 4a e6 90 bd
       0.04083293 -0.02889005 -0.037019506 -0.07075174
000160 36 be 16 be 6f 62 14 3d 64 6e 87 3d ec 9e a8 bd
       -0.14720997 0.036226686 0.06612852 -0.08233437
000170 43 f0 24 3e d7 d3 dc bc e2 e9 33 3e 2e 19 85 3d
       0.16107278 -0.026956482 0.17569688 0.06498943
000180 4a c3 85 3d d0 d2 be bc 98 51 36 3e 40 4f b0 bd
       0.06531389 -0.023293883 0.17804563 -0.08608866
000190 46 54 20 bd 40 25 2e 3b 80 b3 3f be b0 43 95 bc
       -0.03914287 0.0026572496 -0.18720818 -0.018220752
0001a0 07 c6 fb 3d 40 b4 e8 bc ff e9 c5 bd 72 27 0b be
       0.1229363 -0.028406262 -0.09663772 -0.13589266
0001b0 fb 70 13 be e8 57 80 bd e7 d0 07 be 5e d3 15 3e
       -0.14398567 -0.06266767 -0.13263284 0.14631411
0001c0 77 b8 fa bd 77 fb 81 3b 10 60 84 3c 7c b8 0b 3d
       -0.12242215 0.0039667445 0.016159087 0.034111485
0001d0 28 52 c6 bc 28 16 71 3d 86 51 c7 bc 74 48 05 be
       -0.024209097 0.05885902 -0.024330866 -0.1301592
0001e0 cb 62 34 3e 83 04 db bd 82 0c 97 3c f4 6a 20 bd
       0.17615812 -0.1069422 0.018438581 -0.0391645
0001f0 6e ba fd 3d e0 6c 4d be 6f 57 51 be 57 6d 61 3d
       0.12389074 -0.20061064 -0.2044351 0.055035915
000200 ec 7c b3 3d b8 83 69 bd d6 3c 8a bd 3a 00 09 3e
       0.08764061 -0.057010382 -0.06749885 0.13378993
000210 38 4c e9 3d ce 8a 71 3d 46 e8 93 3d c0 0c 2f be
       0.11391491 0.058970265 0.07222037 -0.17094707
000220 f0 3c 3b 3e ab 49 d7 bd f8 ee 35 be 44 c7 5d bd
       0.18284965 -0.10512098 -0.1776694 -0.054145113
000230 ee 55 3a be 10 ba b4 3d ab 33 e8 3d 97 e5 cb 3d
       -0.18196842 0.08824551 0.1133798 0.099559
000240 48 74 bf 3d 28 ca 99 3d 78 cf 3f be ac 6f d1 3d
       0.09348351 0.07509261 -0.18731487 0.10226378
000250 a0 7d 4f bd e1 99 29 be 28 86 a8 3d 07 fa 5d 3d
       -0.050656915 -0.16562606 0.08228713 0.054193523
000260 63 0d 11 3c dc ad d2 3d 1e 61 42 3d 63 ff b7 3d
       0.008853289 0.10287067 0.0474559 0.08984258
000270 fb 9c 93 3d 70 d0 43 be 98 23 23 be 4e 75 3b 3e
       0.07207676 -0.19122481 -0.15931547 0.18306467
000280 4b b2 b2 3d 7f 55 30 3e 60 11 cf bd 46 69 53 bd
       0.08725413 0.17220114 -0.10110736 -0.05161407
000290 e0 6c 29 be f8 e6 25 bd 64 49 3f 3e 9b b6 ea bd
       -0.16545439 -0.040503472 0.1868034 -0.114606105
0002a0 ca 09 1f 3d 13 52 1d 3e c7 df 0c be a8 78 8e bd
       0.038827695 0.1536334 -0.1375724 -0.06956607
0002b0 a6 c5 c5 3c d0 5d 2b be f3 32 46 be b0 94 94 bd
       0.024142098 -0.16735005 -0.19355373 -0.072549224
0002c0 00 02 1a bd 76 42 87 bd 68 36 f4 bb 10 eb 14 3e
       -0.037599564 -0.06604473 -0.007452775 0.14542794
0002d0 b8 26 21 3e eb 47 6a bd 92 f7 0f be e3 32 35 3e
       0.15737426 -0.057197493 -0.14059284 0.17695193
0002e0 36 43 35 be bb 41 2e 3e 9e 58 8e bd 5e db 3a be
       -0.1770142 0.17017262 -0.06950496 -0.18247744
0002f0 f6 2a d5 bd 24 ae f8 bd 54 48 2e bd b0 b6 33 3e
       -0.10408585 -0.1214259 -0.042549446 0.17550159
000300 23 a5 50 be 3b 10 43 3e c7 6f ea bd c7 11 c1 bd
       -0.20375495 0.1904916 -0.11447101 -0.09427219
000310 b3 f3 2f 3e 1b b4 1f be b3 1b d4 bd 0b 77 4b be
       0.17182808 -0.15596049 -0.10356846 -0.1986963
000320 3a b1 d9 3c ce 84 e2 3d b3 7b 81 3d 9c bd ac 3d
       0.026573766 0.11060487 0.06322422 0.084346026
000330 e3 2a bd bd a3 ed 3e be b3 27 35 be 2e 92 2f 3e
       -0.092366956 -0.18645339 -0.17690925 0.17145607
000340 fb 34 1e 3e 3b ad ee bd 8c a3 10 be e0 6b a3 bd
       0.15449898 -0.11654135 -0.14124888 -0.0797956
000350 f2 b7 82 bd 22 0b 01 be d0 9e d5 bd 48 09 15 be
       -0.06382741 -0.12601903 -0.10430682 -0.14554322
000360 52 93 1b be 82 25 e1 bd 83 01 e6 bd 97 53 2e 3e
       -0.15192917 -0.10993482 -0.11230757 0.17024074
000370 d9 03 07 3e a0 16 a8 bd 03 6e ac bd ac f3 91 bd
       0.13185062 -0.082074404 -0.084194206 -0.07126555
000380 6e 78 fe bd 7b 05 40 3e 0b 07 da 3d 7a 80 26 bd
       -0.12425314 0.1875209 0.106458746 -0.04064987
000390 82 a7 15 3d ec b0 1e bd 84 31 35 bd 7a 8e 27 3e
       0.0365367 -0.038742945 -0.044236675 0.16362944
0003a0 14 31 3f be fe ff 40 3e fe d0 33 3e f8 dc 0b be
       -0.18671066 0.18847653 0.17560193 -0.13658512
0003b0 b0 17 ce bc f4 1e 1b 3e 42 3c 0f be 88 e7 14 3d
       -0.02515778 0.15148526 -0.1398783 0.036353618
0003c0 c2 5c 81 3d 2a b5 50 be 93 9d 34 3e 33 92 d1 3c
       0.0631652 -0.20381609 0.17638235 0.025582409
0003d0 83 2e e5 3d b6 3e 31 3e e6 38 53 3d 33 9f f4 bd
       0.11190512 0.17309079 0.051567934 -0.11944427
0003e0 00 8a b5 bc 50 f0 4c be 6e 51 d9 3d 5b f2 95 3d
       -0.02216053 -0.20013547 0.106112346 0.07321616
0003f0 ae 47 82 bd 7b 65 4a 3d 0e 08 17 be b0 71 de bd
       -0.06361328 0.049413186 -0.14749166 -0.10861528

fc2.bias f4 [50]
000000 57 f7 f0 bc 2c c1 56 bc 63 f3 9a bc c4 a2 a5 ba
       -0.029414816 -0.013107579 -0.018914884 -0.0012637009
000010 43 e7 92 bc b4 5e 3d 3c 0a d9 4b 3c de b2 2c bb
       -0.01793254 0.0115582235 0.012441883 -0.002635173
000020 d0 44 e2 bc c2 d3 d5 bc be 50 38 3c a3 1c 19 bd
       -0.027620703 -0.02610195 0.011249719 -0.037380826
000030 8e ab 18 bd ea af e1 bc 10 73 94 bc 10 e9 0a bd
       -0.037272982 -0.027549703 -0.018121272 -0.033913672
000040 6c df 29 bd 82 54 10 bd f2 92 99 bb 3a e0 e3 bc
       -0.041472837 -0.035236843 -0.0046867067 -0.02781688
000050 07 73 08 bd 8f 6b 44 bc 03 08 7c bc d7 1b 89 bc
       -0.033312824 -0.011988535 -0.0153827695 -0.016736908
000060 03 ab 98 bc fa c1 83 bc ba 08 36 bc f2 71 9e bc
       -0.018636232 -0.016083706 -0.011110479 -0.019341443
000070 bc 1a 76 bb 16 fa 47 bc a3 85 0c bc f0 8f e8 bc
       -0.0037552556 -0.012205621 -0.008576783 -0.028388947
000080 20 7d ed bb b2 5d 44 bb 06 ed 21 bc 8b d7 e7 bc
       -0.007247582 -0.0029963073 -0.009883171 -0.028301021
000090 a3 92 3d bc e6 c4 f2 bc 9c 58 0b 3d 96 18 5a bc
       -0.011570605 -0.029634904 0.03402005 -0.013311526
0000a0 ce ff d7 bc 80 8d 0e bd 23 f2 16 ba 50 34 67 bc
       -0.026367094 -0.034802914 -0.0005758127 -0.014111593
0000b0 22 78 18 3d 54 8b 88 bc 77 5d d9 bc b2 ae 06 bd
       0.037223943 -0.016668 -0.026533825 -0.032881446
0000c0 db 4d 08 3c 08 16 f6 3c
       0.008319343 0.030039802

fc3.weight f4 [25, 50]
000000 b8 03 01 3c fb ab f6 bd f8 a4 71 be be 92 77 3e
       0.007874422 -0.120445214 -0.23598087 0.24177071
000010 8b 04 13 3e c6 9c 30 be e4 2f 8e 3d bf 38 cf 3d
       0.14357202 -0.17247304 0.06942728 0.10118245
000020 a2 2f 95 bd 12 76 86 3e 74 0b 5c be c6 2b 48 3e
       -0.07284476 0.26261955 -0.21488744 0.19547948
000030 74 4b 4e be 68 01 3a be f2 04 42 3d 46 a8 a6 3d
       -0.2014597 -0.18164599 0.047367997 0.08137564
000040 cb 4e 5c 3d 92 6c 5d be 82 7a 90 3e 5c 4b 96 bd
       0.05378608 -0.21623448 0.28218466 -0.073385924
000050 2f 15 8f 3d a8 29 a0 3d bd 38 9a 3c c8 ca 84 be
       0.06986462 0.07820445 0.018825883 -0.2593596
000060 96 96 91 3d 33 97 63 be b0 47 29 be 38 ec 84 bd
       0.071088 -0.22225647 -0.16531253 -0.06490368
000070 52 09 6d be 66 f0 83 be 43 23 10 be e0 04 3a 3e
       -0.23148087 -0.25769347 -0.14075951 0.18165922
000080 40 4e ad bd 92 d7 50 bc 4e 52 3c 3e f2 cf 87 3e
       -0.08462191 -0.0127467085 0.18390772 0.26525837
000090 3d 96 8b 3e c2 24 37 be 57 68 85 be cc 03 8f 3e
       0.2726306 -0.17885116 -0.26056167 0.27932584
0000a0 fe 3c 75 be bb a2 21 3e 9a 00 02 be 28 3e 2b be
       -0.23949048 0.15784733 -0.12695542 -0.1672293
0000b0 ee d3 2d 3e 82 dd a8 bc 3a ab fa ba e2 72 80 be
       0.16975376 -0.020613436 -0.0019124516 -0.2508765
0000c0 b7 63 8e be b7 28 80 3e 86 39 05 3e 12 59 3c 3e
       -0.2781045 0.25031063 0.13010225 0.18393353
0000d0 7f 59 46 3e 82 aa 4a 3e 63 5a 3a be 20 da 21 3e
       0.19370078 0.19791606 -0.18198542 0.15805864
0000e0 ab d3 54 bd ca 0f 34 3d 63 f7 ce 3d b6 7b 18 3e
       -0.051959675 0.04396037 0.10105779 0.14890942
0000f0 53 a2 ca bd 24 67 ae 3d b4 99 83 be d0 a5 cc 3d
       -0.09894242 0.08515766 -0.25703204 0.09992564
000100 fe 6a 79 be 77 ae 24 3e e3 98 84 be de 10 cb 3d
       -0.2435722 0.16082178 -0.25897893 0.099153265
000110 ca 5c 24 3d 30 e0 13 bc 56 56 7d bd f8 47 73 3e
       0.040127553 -0.009025618 -0.061849914 0.23757923
000120 e4 fa 99 bb ac 29 a7 3d 34 22 2a 3e 0f 96 df 3d
       -0.004699098 0.08162245 0.1661461 0.10917293
000130 0f b4 10 be 40 b2 16 be 3b 62 3e be 15 e3 0e 3e
       -0.14131187 -0.14716434 -0.1859216 0.13953812
000140 e6 da e1 3d b3 cf d0 bd e4 3f 36 be 50 09 8a 3e
       0.1102808 -0.101958655 -0.1779781 0.2696023
000150 20 96 8e 3d af c6 d0 bd fa 37 2f 3e f6 ae 84 be
       0.06962228 -0.10194146 0.17111197 -0.25914735
000160 8e 05 13 bd 2f 9f 81 3e 96 c9 50 be 58 77 71 be
       -0.03589397 0.2531676 -0.20389399 -0.23580682
000170 f8 8b 14 be f8 bf 77 bb 93 95 7d 3d 14 d3 9e bd
       -0.14506519 -0.0037803631 0.061910223 -0.07755104
000180 0a 04 8d bd 17 93 88 3e 0b 9e 6f bd f7 99 82 be
       -0.06885536 0.2667472 -0.05850033 -0.2550809
000190 ee c9 3b 3e 36 d6 46 3a fa 54 2b 3e 58 e0 43 be
       0.18338749 0.00075850205 0.16731635 -0.19128549
0001a0 f4 ff 16 be 44 43 d6 bd b6 f1 01 3e 08 48 1c 3e
       -0.14746076 -0.10462049 0.12689862 0.15261853
0001b0 c3 7f 61 3e 2e cb de bd e3 be bd 3d 37 7e 31 3e
       0.22021393 -0.10878597 0.092649244 0.17333303
0001c0 37 38 b2 bc 9d 7f 11 be 93 2f 67 bd ef d6 a4 bd
       -0.021755321 -0.14208837 -0.056441855 -0.08048808
0001d0 c2 aa 92 be 23 fe 68 3e 42 ea b2 3d 42 7e 2b 3e
       -0.28645903 0.22753195 0.087360874 0.16747382
0001e0 06 f1 77 3e 36 a9 3b be fb 6e 5d 3e fb f5 85 be
       0.24213037 -0.18326268 0.21624367 -0.2616423
0001f0 42 b5 a2 3d 9c 06 0e bd e0 cc 58 bd ff b7 88 bd
       0.079447284 -0.034674272 -0.05292976 -0.066757195
000200 a7 d9 3b be 74 16 00 3c 4f 70 fd 3d 37 01 14 3d
       -0.18344747 0.007817853 0.12374937 0.03613397
000210 8b d3 43 bd c2 b6 86 be 74 10 4a 3e d7 cf 27 3e
       -0.047809165 -0.26311308 0.19732839 0.16387878
000220 62 70 c7 bd 0e 26 3e 3e 33 69 c3 3d 76 b4 d8 3c
       -0.09738232 0.18569204 0.095415495 0.026453238
000230 5f f8 c7 3d 6f b6 0d be 44 4f 22 bd a7 b3 88 be
       0.0976417 -0.13839124 -0.039626375 -0.26699564
000240 1f e2 f5 bd ff 2c 54 be 63 35 50 3e 62 ac 23 be
       -0.1200602 -0.2072029 0.20332865 -0.15983728
000250 85 a5 0f be 44 77 4d 3d b7 0b 2c be 8a b2 d4 3d
       -0.14027984 0.05016257 -0.16801344 0.10385616
000260 16 1c 60 be b0 97 29 be 2e 59 8b 3d 94 31 0a be
       -0.21885714 -0.1656177 0.06804119 -0.13495475
000270 1b 8d 4e bd 52 8e 00 be bb a8 46 be 03 2a bb bd
       -0.050427537 -0.12554291 -0.19400303 -0.091388725
000280 fe cf bc bd 74 25 22 3e bc 59 45 3e 2c 30 56 be
       -0.09219359 0.158346 0.19272512 -0.20916814
000290 08 9b 45 3e ef 44 db bd 6c ab b8 bd 0b 5c 5a 3e
       0.19297421 -0.107065074 -0.09017071 0.21324174
0002a0 ee c6 f8 bd ee 3a 7b be c0 60 cd 3d e3 4a 1b 3e
       -0.12147318 -0.24534199 0.10028219 0.15165286
0002b0 54 38 53 3e a0 e3 db bd 1a 3a 89 3e 8b a6 1f be
       0.20626956 -0.107367754 0.2680214 -0.15590875
0002c0 06 7d 6c 3e e4 de 29 be a6 96 64 be 24 b5 72 3e
       0.23094568 -0.16588932 -0.22323093 0.23701912
0002d0 aa a0 1f 3e 84 75 54 3e 7f 44 89 3e e0 24 4a be
       0.15588632 0.20747954 0.2681007 -0.19740629
0002e0 bc 0e 39 3e e0 53 12 3e 4e e9 54 3d 13 d8 8f 3e
       0.18072027 0.14289808 0.05198031 0.2809454
0002f0 8e 08 2a be a0 20 e8 3c 73 0d 7c bd 6c 0d 51 be
       -0.16604826 0.02833587 -0.061536264 -0.20415276
000300 34 02 41 3e 48 77 69 3e 7b 8c 3d bd 68 89 2c bc
       0.18848497 0.22799408 -0.04627655 -0.010530807
000310 5f fd c9 3d 1a d3 22 3e 28 56 7d be 38 2f 64 3e
       0.0986278 0.15900841 -0.24739897 0.22283638
000320 5e 97 f4 3d 38 ea 96 3e 36 c8 77 3d ac 4b b2 bc
       0.119429335 0.2947557 0.06049367 -0.021764599
000330 e2 7f b5 3c e6 e0 39 be 90 b4 b9 3d 64 0d 75 3e
       0.022155706 -0.18152198 0.09067643 0.2393089
000340 7e 7b cb bd 52 2a 27 3e 76 9c 1f 3e 36 e8 eb 3d
       -0.09935664 0.16324738 0.15587029 0.115189
000350 67 89 30 be ec 45 4a be af 4e 1f 3d 26 6a 06 be
       -0.17239915 -0.19753236 0.038893398 -0.1312643
000360 0a 95 26 3e 80 ce db 3d 1b e1 7f be 77 bd 36 3e
       0.16267791 0.10732746 -0.24988215 0.17845713
000370 2c 2b 63 3d fb c0 89 3e 80 91 0d be 56 69 65 be
       0.055461094 0.26905045 -0.13825035 -0.22403464
000380 eb d8 8d 3e 96 d7 4e 3e e0 eb 78 3e 66 2d 51 be
       0.27704558 0.20199427 0.24308729 -0.20427474
000390 7f 8a 55 3e 4f 23 e4 bc f3 75 68 3e 64 d3 15 3e
       0.20853613 -0.027848868 0.22701244 0.1463142
0003a0 1f 2c 87 3d c7 09 51 3e 46 72 22 be 98 8d d9 ba
       0.06600212 0.20413886 -0.15863904 -0.0016597984
0003b0 0a c5 6e be 78 0d 4f be 44 da 8a be cd 93 86 3e
       -0.23317352 -0.20219982 -0.27119648 0.26284638
0003c0 06 98 be 3b a2 ad 90 3e 5a 52 58 3e e0 6c 8d 3e
       0.0058164624 0.2825747 0.21125165 0.27622128
0003d0 fe 03 1b 3e 0c 97 90 bd ca e3 ec bd 2b ae 54 be
       0.15138242 -0.0706006 -0.11566885 -0.20769565
0003e0 52 e7 3f 3e a0 c1 e0 3d 26 09 9a bd 40 82 7f 3e
       0.18740585 0.10974431 -0.07521276 0.2495203
0003f0 47 69 b0 3d f8 d0 15 bd c3 32 3e be 2f 23 56 be
       0.0861383 -0.03657624 -0.18574052 -0.20911859

fc3.bias f4 [25]
000000 90 d7 07 3c 44 c8 31 ba 47 fd 35 bd 4e e9 ee bb
       0.00829114 -0.0006781856 -0.044430997 -0.0072909957
000010 b2 3b d5 3b a5 79 29 bd bf 11 30 bd e7 73 fb bc
       0.0065073604 -0.041375775 -0.042985674 -0.030694915
000020 f7 c9 2f bd 00 21 b4 3c ec 72 10 bd 32 fc db 3c
       -0.042917218 0.021988392 -0.035265848 0.026853655
000030 68 a1 3e bd 92 0d 88 bc 63 74 44 bd 6b 6d de ba
       -0.046540648 -0.016608033 -0.047962558 -0.0016969865
000040 9e 78 09 3c d4 36 3f bd e2 c3 07 bd 13 1a 30 bd
       0.008390574 -0.046683148 -0.033145793 -0.042993616
000050 a0 db 26 bd 77 eb 08 3d c8 46 e6 3c b4 1f 21 bd
       -0.040736794 0.03342768 0.028109923 -0.039336875
000060 22 16 0e 3d
       0.034689076

fc4.weight f4 [3, 25]
000000 42 e3 91 be 36 f3 2a be aa d2 29 3e aa 22 2f be
       -0.28493696 -0.1669434 0.16584268 -0.17103067
000010 bc 1a 14 be 9b 8e 67 be fa 87 52 bd 7f 04 bf 3e
       -0.14463323 -0.22612993 -0.05139921 0.37308118
000020 e6 c4 9f 3e 5e 8b a3 be 13 c5 c5 be d2 e6 b2 be
       0.3120491 -0.31942266 -0.38626918 -0.34941727
000030 ce e8 c7 be 14 f8 c9 bd d0 af f7 3d 9e 6e d0 3e
       -0.39044803 -0.0986177 0.120940804 0.40709394
000040 a8 4e 10 be d2 ec 98 3e 40 41 d6 3e e4 63 f7 bd
       -0.14092505 0.2986818 0.41846657 -0.120795995
000050 a0 9d cc be b0 88 f2 3d 10 72 63 3d d6 b7 85 3e
       -0.39964008 0.11842477 0.0555287 0.26116818
000060 d8 4b dd be 66 f6 93 be 70 d3 ad be 47 9a 94 be
       -0.43221927 -0.28898925 -0.33950377 -0.29023954
000070 3b c6 a2 3e fa 45 35 be 28 8a 97 bd b7 96 77 be
       0.31791863 -0.17702475 -0.07399398 -0.24178587
000080 d4 a8 a8 3c 5f 76 b6 be c3 cf 5c 3e c0 60 f9 3d
       0.020588316 -0.35637185 0.2156363 0.12176657
000090 26 c1 8a bc 34 cd dc be 58 b6 a7 3e c3 2b 4e be
       -0.016937803 -0.43125308 0.32756305 -0.20133881
0000a0 34 19 06 3e ee e1 e0 3e 16 ad cf be a0 1c 79 3e
       0.13095552 0.4392237 -0.40561742 0.24327326
0000b0 eb 84 70 be 20 48 97 be 08 8b 83 3e ee 21 3a 3e
       -0.23488204 -0.29547215 0.2569201 0.18177006
0000c0 50 5e 90 be 1c f9 93 be f0 0f ee be c8 aa be be
       -0.28196955 -0.28900993 -0.46496534 -0.3723967
0000d0 9c d9 c9 3d ee 5f 3a 3e 02 d6 e7 be 04 62 af 3e
       0.09855959 0.18200657 -0.45280463 0.34254467
0000e0 eb 4d c5 3d 2e 81 01 3e 0e 2e ab 3e 97 97 a8 3c
       0.09634002 0.12646934 0.33433574 0.020580096
0000f0 43 46 25 3e e8 01 04 be 68 d4 e0 3d ea 97 7c 3e
       0.16140084 -0.12891352 0.10978013 0.24667326
000100 4b 38 cc 3e 30 02 a2 be b7 31 df be ff e9 c9 3e
       0.39886698 -0.31642294 -0.43592617 0.39436337
000110 23 87 ad 3e 8e f1 0d bd 82 78 64 be ac 17 00 3e
       0.33892164 -0.034654193 -0.22311595 0.1250903
000120 04 43 ee 3d 3a b3 4d 3e 32 85 bb be
       0.11633876 0.20087901 -0.36625057

fc4.bias f4 [3]
000000 9f 84 97 bc c3 2e 55 3d d8 75 15 bd
       -0.018495856 0.05204655 -0.036489338
